Analysis_tools/Latent_space_traversal/euclidean_model.pth (torch, 352276 bytes, 5 tensors)

Wu f8 [12, 300]
000000 44 42 1a 1e b7 b2 c7 bf dd f7 75 ae 3c 74 ec bf
       -0.18514145822384098 -0.8891890914380799
000010 64 3e ad 0f ab 7e e2 3f 1a c6 3d 59 fd 7d db bf
       0.5779624277292439 -0.42956479754420374
000020 3a 8b 00 30 77 5e b9 bf f9 8c 03 8b 6c 96 d8 bf
       -0.0990976803009688 -0.3841811521107981
000030 cb 84 21 4b ed ff aa 3f 08 6d d6 26 f1 b1 cf 3f
       0.05273381750226632 0.2476178588520741
000040 fc e9 02 38 e2 b8 e1 3f fe 50 2f ef 5d bc d7 3f
       0.5538188070270844 0.37087200506108775
000050 20 a7 8f 8a 5d 28 ee 3f 16 79 c1 96 3c c3 c9 3f
       0.9424274164459554 0.20127065049286647
000060 bf 7d 20 4a 66 20 e4 3f 96 63 1c 8f 26 a5 da 3f
       0.6289550254622823 0.41632999396966264
000070 a9 90 ea b6 03 30 ee bf 3d 3d e1 48 f9 d5 e9 3f
       -0.9433611462195773 0.8073698447641743
000080 87 2b 85 0d 61 d9 ba bf 1d 51 9d 9c 3e 65 e8 bf
       -0.10487944202502152 -0.7623589571835826
000090 0a 28 f3 75 02 7b e5 3f 26 75 8d b3 17 de e2 bf
       0.6712658218104945 -0.58961091107236
0000a0 63 5a 66 3f 37 db e4 bf f5 b0 7e 19 d4 55 ba bf
       -0.6517597425725622 -0.10287213919099598
0000b0 a8 9c 10 05 d5 bb d5 3f 96 da 03 76 19 10 ed 3f
       0.3395893620931454 0.9082152657491231
0000c0 3d 23 f6 33 8e 61 e5 3f 2a 8a f1 8d 01 4c 8f 3f
       0.6681586279747546 0.015281688827774326
0000d0 9f 7b f3 50 32 90 d0 3f 38 84 0a 6b 9a 7a e5 3f
       0.25880105882054666 0.6712162104269117
0000e0 f8 63 ea 53 4f fb ba bf 60 f1 dd 96 79 a4 e0 3f
       -0.1053971843597451 0.5200775095577619
0000f0 43 9d dc 39 ea 83 d1 3f d8 39 55 68 9f 5a d1 bf
       0.2736764493042367 -0.2711561697841751
000100 4a 4d d6 5c 46 25 ef bf 1b b0 d1 86 65 54 b5 3f
       -0.9733001530861796 0.08331903974038861
000110 8e a4 55 b5 94 36 d7 bf 1a 88 40 e9 07 b3 e6 bf
       -0.3627063532681597 -0.7093543582634567
000120 68 a8 a9 48 36 42 b5 3f 66 4b e1 79 17 f0 e3 bf
       0.08304156564705212 -0.6230580692739351
000130 a2 bb ce 69 d2 dc c9 bf fa 11 07 16 53 aa e0 bf
       -0.20205145040878586 -0.5207915716387668
000140 2e fa 30 d1 d8 b9 ed bf 43 34 5b f3 c3 98 c1 3f
       -0.9289363942878646 0.1374745310080546
000150 44 b6 38 ef d5 ee ea 3f 0f 43 1d b1 12 89 e4 bf
       0.8416547462745219 -0.6417325457824478
000160 da e4 41 1d 82 00 da 3f 76 86 de 54 78 39 dc 3f
       0.40628102166335867 0.44100769317638056
000170 ab b3 a3 f9 08 10 ee bf a3 f9 f7 4e 40 36 c5 3f
       -0.9394574046869953 0.16571811538592582
000180 c0 de 05 93 a4 4c d9 3f db 82 45 a9 74 38 ea 3f
       0.3953029094477465 0.819391565903142
000190 98 19 4f 58 ab 94 ed 3f 49 6d 8b 6a 24 7d e5 3f
       0.9243981098923539 0.6715261536550453
0001a0 cf 38 5a da 04 dc ec 3f ce 08 1f 92 26 25 8a 3f
       0.9018577828117261 0.012766171774164194
0001b0 6a 35 38 df 15 c8 e3 bf 48 35 97 c9 f1 7c eb bf
       -0.6181744918591623 -0.8590020119969859
0001c0 9c b0 58 b7 d4 4f eb 3f c1 19 d4 04 d5 d2 cb bf
       0.8534949856744052 -0.2173715852333782
0001d0 71 f7 f2 83 bf 81 c7 bf 5e 9d e3 3e f4 1c e5 bf
       -0.18364709799601145 -0.6597844341567158
0001e0 83 74 f7 12 2b 4c e2 bf b0 bb 9a 6e ac e3 93 3f
       -0.5717978830758884 0.019423193217047163
0001f0 90 48 cb b3 da 49 d4 bf b0 62 bc 5f 84 13 b6 bf
       -0.31700770910277587 -0.08623530709554461
000200 45 78 e6 72 d3 e2 ec bf 8e ff 0b 70 73 26 df bf
       -0.9026887172838164 -0.48672185842587445
000210 ad 5a 33 3c 03 f3 ea 3f 81 7c 1f b9 a0 64 ea bf
       0.8421646285813346 -0.8247836700137584
000220 e9 0a 5a 53 4f e0 cc 3f 4e 96 1f 3f 87 17 e0 3f
       0.22559539384754793 0.5028721077803284
000230 63 4b c9 25 87 40 b0 bf af db c5 48 4c c9 d0 3f
       -0.06348461792485476 0.2622862539932908
000240 ac 3f 2f 11 b4 40 c2 bf 49 59 0d a8 4c 7b ed 3f
       -0.14259959067430594 0.9213012010830336
000250 07 27 34 93 44 4f e8 3f 6a 0f 9c 2c 6e 6a e8 bf
       0.7596762538025538 -0.7629919883042764
000260 96 90 42 24 05 0b eb bf 72 15 9b 1d 77 46 e9 3f
       -0.845095225162839 0.7898517206419184
000270 97 15 7d 5f a8 3f ef bf 0c da c9 32 ca 79 df 3f
       -0.9765207161914756 0.4918084617596896
000280 e7 1f f4 e2 c7 88 e7 bf 15 0e b4 49 b4 97 e6 bf
       -0.7354468758285265 -0.7060185851591451
000290 2b ab 3f f4 3d 5f b6 bf 59 fe 59 b9 97 b6 e4 3f
       -0.08739077771285213 0.6472891445300305
0002a0 f4 86 0d 5c 1a 3f c9 bf 31 e4 4c 84 41 33 d4 3f
       -0.19723824972884751 0.31562841339070064
0002b0 6a 6c db 6e 99 41 ce bf ff 8f 5d 0d 0d a3 eb 3f
       -0.23637693322129688 0.8636536847157003
0002c0 6a 86 d2 2e ad f8 e6 bf 34 98 59 a9 cf 73 e7 3f
       -0.7178560175418174 0.7328871066681644
0002d0 db fb 4b 5b eb 8b 91 bf cc 60 fe 5a 01 90 e7 bf
       -0.01713531250697629 -0.736328771326066
0002e0 f8 0d 03 6e 55 1b e8 3f 51 b4 a7 41 22 cb e8 bf
       0.7533366345091386 -0.7747966081930234
0002f0 6c 48 7b c7 f9 91 a8 3f cd 2b 09 1a 4d 3a dc bf
       0.0479887062080174 -0.441058421540842
000300 68 dc c5 86 f1 7b e4 bf 27 c2 26 82 08 e7 d4 3f
       -0.6401298172267049 0.3266011496553198
000310 77 e2 46 78 bc 2d a4 3f 1e 99 9b 53 6e ec da bf
       0.03941143959258835 -0.4206806007845375
000320 bc 39 44 0c 1e f1 da 3f 78 31 b9 93 e5 15 ed 3f
       0.42096663663769696 0.9089229474280236
000330 68 b8 c0 ed 6b c4 ef bf c4 92 a4 29 b8 0d e2 bf
       -0.9927272456750531 -0.5641747296654889
000340 51 43 64 6b b6 f6 b3 bf 8d 80 76 89 0e 0a eb 3f
       -0.07798328515879162 0.8449776348898169
000350 14 f9 5f 06 bf 8b c8 bf 6e 61 41 55 44 d3 e9 3f
       -0.19176471530222072 0.8070394196648019
000360 1d 27 db 72 3f 43 ea 3f cb a8 14 8d 4d 0b b7 bf
       0.8207089656145602 -0.09001621908524553
000370 db 0b 3e 41 71 c4 df 3f 54 82 f5 24 89 1a e0 bf
       0.496364892686129 -0.503239223657213
000380 39 ba 0c 31 bf e6 e0 3f 19 fe 32 b8 bd b2 e3 3f
       0.5281673391344334 0.6155689809456276
000390 35 88 b5 68 f2 1a ee 3f df 40 68 61 8b 93 e2 3f
       0.9407894177532002 0.580510797737613
0003a0 07 64 b3 39 3f f4 ce 3f eb e1 4c 9d 13 15 ed bf
       0.24182882611674492 -0.908822829463188
0003b0 7f 69 32 73 4d 0d c8 3f 91 a6 6d 03 58 e7 de bf
       0.18790596127366752 -0.4828701051215854
0003c0 d2 32 09 34 6b 50 ce bf f3 3b 84 02 c7 41 c8 3f
       -0.23682918587510088 0.18950736639860075
0003d0 ab c3 a0 13 09 84 df bf 35 cd 9d 86 25 f0 ef bf
       -0.49243380467219805 -0.9980647687174612
0003e0 63 e6 5c 4b 98 e2 e2 bf f7 d0 1c 1d 32 92 cf bf
       -0.5901605102473692 -0.24664904042732136
0003f0 53 2f 5e 0a d9 d1 49 bf 9e cb 25 d3 6d 7b c0 bf
       -0.0007879552619995768 -0.12876675424521705
000400 2c 07 a8 64 16 86 c3 bf d2 27 81 bc 2e e2 d8 bf
       -0.15252952494489003 -0.38880508812564785
000410 af 13 13 96 d3 7a d6 3f 5b 05 58 d8 6d e4 c6 3f
       0.35124673515047794 0.17884610236800821
000420 0d 02 ee db a9 b1 e6 3f 3a 9b 62 dd 5a dc ed bf
       0.7091874404432602 -0.9331487964562719
000430 4a f5 92 c2 e6 b9 ea bf cb ae d0 4e d2 f1 a0 3f
       -0.835193042781307 0.03309495174502571
000440 ee 45 c5 ee ec 1a dd bf 55 ff d2 0a 75 fc b3 3f
       -0.4547684032196163 0.07807094110739617
000450 07 cf 3b be fb b7 e8 bf 69 da 2c f9 63 09 e4 3f
       -0.7724589076519529 0.626146303816154
000460 39 0d bd 76 39 c4 ea 3f 53 7f 54 9d 49 7b ef 3f
       0.836453182135677 0.9837997506001365
000470 e1 49 dd 22 82 92 e0 bf f2 bd db 22 eb f3 dd 3f
       -0.5178843193955879 0.46801260379922305
000480 97 55 ae f4 fa e0 ec bf 6f 34 c8 05 33 45 db bf
       -0.9024634150434164 -0.42609859051373794
000490 38 38 cc df 87 4c e4 3f 89 62 1d e6 cb 57 b5 bf
       0.6343421336221189 -0.08337091796910036
0004a0 6a 9c 4a 41 c8 1a c6 bf a3 d0 1d 9c e3 dd dd bf
       -0.17269232929286044 -0.466668035943494
0004b0 dd 40 86 23 81 4a e7 bf 51 fe 74 ee f9 ac da 3f
       -0.7278447812878103 0.41680763518158864
0004c0 1f f3 25 a3 45 91 c6 bf de be 75 c8 3d d3 b1 bf
       -0.17630835024092392 -0.0696295370487365
0004d0 51 e0 73 e8 95 b7 cb bf a6 af b5 9d 69 b3 d7 bf
       -0.21654008722521437 -0.37032547379817016
0004e0 44 23 0c a2 6d 20 d5 bf f8 2f c3 91 29 6d eb bf
       -0.33010426354353606 -0.857075485889708
0004f0 02 05 ed f7 56 4a d8 3f c4 a2 40 65 64 14 e8 bf
       0.3795373364592508 -0.7524892785632677
000500 f4 4d 21 4c 77 1d cb 3f 90 7a f0 af 3d fd e6 3f
       0.21183673112191992 0.7184132038417648
000510 68 04 1b 05 a0 2f ef bf b1 d5 88 d8 5d ae d4 3f
       -0.9745636081426143 0.3231424917788344
000520 9f 28 b6 cd 7c 66 e2 bf de 46 a9 e5 10 52 d1 3f
       -0.5750106828502516 0.2706339113984607
000530 14 89 8f 2a aa d7 de bf fd b5 8c 53 17 41 ec bf
       -0.48191312938992437 -0.8829456931904925
000540 17 a2 73 4e 75 aa da bf ed 96 fa 4b 20 9d ee 3f
       -0.4166539446000867 0.9566804393732277
000550 18 ae a6 98 61 57 d6 bf 97 93 9c 5f 7d 4d e8 bf
       -0.3490833273633327 -0.7594591967978087
000560 a6 e1 6f f4 9f 1e 73 3f bc f3 50 41 cd f3 a7 3f
       0.004667877982676682 0.046781934950991894
000570 1f c9 2e 4c 96 20 e9 3f 4e 07 a6 5b b4 92 e1 3f
       0.7852279174751721 0.5491582670222017
000580 3f ae cd 2d 72 96 e9 bf e4 50 92 1d c2 50 e1 bf
       -0.7996149916265906 -0.5411081864899896
000590 23 d2 d9 16 c3 24 ac 3f 76 fe 18 7c e4 3d e0 3f
       0.054967972316181134 0.507555239084424
0005a0 9d c1 b0 fc a7 65 e3 3f 39 ba ef 7f db df e8 3f
       0.6061592040405689 0.7773263453253271
0005b0 c3 74 a2 5b 27 43 e8 bf 5c 37 c0 c7 bb e3 e2 3f
       -0.7581974782694022 0.590299501551026
0005c0 7d 16 d0 28 6f 73 de 3f 83 d8 53 f5 c1 76 de bf
       0.4757955454409524 -0.47599839170232644
0005d0 38 db 7b d6 c8 9c de 3f 86 6c 29 5d 2b 46 e1 3f
       0.47831936784443796 0.5398155994002003
0005e0 c2 f6 47 fd 57 94 d6 3f d5 ea 09 8f 44 69 ea 3f
       0.35280418142779635 0.8253500741696721
0005f0 ab a0 55 c2 2d 9f bb bf d8 05 67 4e 4f 44 d5 bf
       -0.10789762491697512 -0.3322942987107047
000600 c4 b8 91 f9 14 50 dc 3f fb 02 04 d1 df 7e ea bf
       0.4423878133010357 -0.827987583383304
000610 ce 38 3f a1 50 86 da 3f a8 33 a1 fe 3a 3b c8 bf
       0.41444793459676255 -0.18930756981936026
000620 3b 19 fb 43 41 ad c3 3f 40 a1 ab 41 05 4e e0 bf
       0.15372482127549766 -0.5095239908814975
000630 92 5e 2e 67 e7 24 df bf c0 34 04 1d aa 66 d9 bf
       -0.4866274364116886 -0.39689114411960347
000640 0d 34 bc 44 12 4f ef bf b7 4b 3e 66 e1 ac e1 bf
       -0.9784022657855772 -0.5523535725536622
000650 13 6b ba 14 20 ef ca bf 1f 55 15 6f 29 cb ea bf
       -0.2104225255214592 -0.8373000306698123
000660 ec ee 43 d2 9e 04 ee bf 49 54 d5 4c 22 59 e3 3f
       -0.9380640131707572 0.6046306133890847
000670 bf c8 cc f4 65 79 d3 bf 45 d0 42 4d bd db ef bf
       -0.3042845621704479 -0.9955736645702095
000680 34 d2 9f 50 e8 72 e8 3f a8 e3 f8 6b bf f1 d3 bf
       0.7640267920201667 -0.3116301111618278
000690 09 1d fe 51 85 d7 c6 bf 50 39 30 be 3c 15 ef 3f
       -0.17845217231317914 0.9713424410454454
0006a0 3e 8c 57 53 7a 9c d8 bf a7 d2 08 92 47 ac e4 3f
       -0.3845506490599212 0.646030221198619
0006b0 14 6d b6 bb 15 98 c0 3f b5 a0 02 45 01 0f c2 3f
       0.1296412626805724 0.14108291501657325
0006c0 64 7b 80 fb 9c 64 e2 bf 9a f0 e9 13 81 1e c9 bf
       -0.5747818863054417 -0.19624341461520062
0006d0 fe 9f 6c 33 17 fa d7 3f 4a e2 c6 81 57 20 ce 3f
       0.374639320582446 0.23536199414026476
0006e0 9f dc f1 9c d8 25 ea 3f ff 65 04 cc 34 37 ee bf
       0.8171198907210914 -0.9442390427313397
0006f0 3c 39 fa 2a 45 0e e3 bf 13 5b 7c e2 a4 8f bb bf
       -0.5954919661906284 -0.10766058473050703
000700 d5 bd 07 f8 e6 a1 ef 3f 44 28 68 dc 9d 8b ef bf
       0.9885134548512108 -0.9857930474111147
000710 8a 56 2f 4d 46 ee ed bf 34 d2 a9 dd b4 c8 d2 3f
       -0.9353362567441803 0.29350015303433286
000720 93 e6 a0 a1 a7 51 e6 3f ad ab fa af 1b f0 d5 3f
       0.6974676281744955 0.34278003869502066
000730 e3 39 5d 2c 1f 2e b5 bf 4e 69 08 b6 18 bd e4 bf
       -0.08273501237020002 -0.6480830722169146
000740 7b aa 55 8d 21 5e af bf f0 18 b2 ce 4e c0 dd bf
       -0.06126503801609303 -0.4648625391495349
000750 63 30 d8 91 5d df e4 3f db 0f ae 8a 25 d3 db 3f
       0.6522662971997416 0.4347623686119257
000760 8d 00 be da 0e d8 dc 3f 2f 89 31 c8 24 1e b4 bf
       0.4506871353296525 -0.07858495605026826
000770 77 5a 10 5f 67 55 de 3f 17 81 bd 5a 9b c2 e0 3f
       0.4739626339300353 0.5237557194014099
000780 1d 77 e4 fa de 30 e5 bf 89 0d aa 3d 0e 5b cd bf
       -0.6622157001727121 -0.2293412972540916
000790 74 a8 ea d4 1e 9b c6 3f e3 fc b2 10 cb da d3 3f
       0.17660890003509488 0.3102290785863728
0007a0 03 bb 16 78 f5 17 b6 3f 80 c6 58 8c dd cd b8 bf
       0.08630308324675799 -0.09689125706133872
0007b0 84 75 a9 a7 c3 c1 ad 3f 41 bd 12 5c 62 3d e8 bf
       0.05811892911581665 -0.7574931906037038
0007c0 8e 54 07 db 7a 82 d7 bf ef fb c8 b4 4e c2 e4 3f
       -0.3673388613654617 0.6487191706618186
0007d0 b9 1d 79 cd ce 10 e3 bf f9 7b c9 e4 af 9c 73 3f
       -0.5958017361780811 0.0047881003234513326
0007e0 f0 aa 57 6e 0f cf d0 bf 44 5f 60 f5 a0 55 e6 3f
       -0.26263795638685306 0.6979527275570736
0007f0 06 d4 f3 9f 53 ee ea bf a4 02 b0 79 4f bb ee bf
       -0.8415926097937934 -0.9603650452337047

bs f8 [121]
000000 5a ad c4 26 b3 c2 cd bf b3 fe 9b a9 21 34 d8 bf
       -0.23250426667196217 -0.37818185389913167
000010 07 a3 e3 d0 2c 84 c1 bf 18 6c fd 35 55 14 a3 3f
       -0.13684616279285697 0.037264502373283104
000020 84 fc c8 e8 15 c0 9d 3f 01 e4 6e 50 f2 c7 c8 bf
       0.029053060849261417 -0.19360188414955817
000030 6d e9 16 28 0f 8b b4 3f 80 19 3e 17 54 38 db bf
       0.08024687508342306 -0.4253130175569808
000040 21 ec 2a 16 d3 59 d0 bf 51 25 b2 43 0f f6 ce bf
       -0.2554824558716878 -0.24188414388144477
000050 96 33 04 2d 6e 0f a9 bf 44 23 04 7e 67 b2 d3 bf
       -0.0489458494140315 -0.30776393228784493
000060 2a 98 6a 4d 71 d7 a3 bf 0c 63 6b b1 50 b8 ca bf
       -0.03875307149910186 -0.20874985373554755
000070 e0 28 7c 5b 0a 0c c7 bf be dd d4 a8 da 4b b5 bf
       -0.18005494563141777 -0.08318869230139733
000080 b3 53 1d bc 23 1e ca bf 07 98 95 23 99 6e b0 bf
       -0.2040447872665517 -0.06418759459265298
000090 be 29 c4 a8 cc d2 cb bf 4d c1 b8 33 cf bf d5 bf
       -0.21737058868923315 -0.3398321156592104
0000a0 50 77 d7 b1 7c 03 ce bf cc 0a 00 b3 37 4f b7 bf
       -0.23448141750025764 -0.09105251426812372
0000b0 a4 71 f2 f8 07 d4 d4 bf 6c 32 70 da 67 6e cf bf
       -0.325441353905058 -0.24555681386881945
0000c0 8e 71 3e 72 45 08 d5 bf 05 74 d8 14 f7 2a 86 bf
       -0.3286298385298999 -0.010824137042670054
0000d0 0a 5b d7 4e eb b8 c3 bf 0a 3f dd 3b 16 12 af bf
       -0.15408078527135444 -0.06068486672177016
0000e0 24 f8 3c 19 03 58 e6 bf 88 f8 a3 be f1 40 d6 bf
       -0.6982436650212134 -0.34771388642537504
0000f0 a9 66 86 f5 f5 4b b3 bf 35 9a 8b 3f 13 4c c1 bf
       -0.07537781948340218 -0.1351341305045978
000100 80 99 24 5d db 37 ba bf 51 8f d9 b3 28 7e d8 bf
       -0.10241480850218032 -0.38270013392888297
000110 0f b2 11 f8 44 a4 d2 bf e7 4b 7c cf e9 10 ad 3f
       -0.2912762091207534 0.05676966340811145
000120 03 3f 55 2d d2 61 b6 3f e4 2d 54 af 3b 73 b5 3f
       0.08743013006937521 0.08378956823815248
000130 a4 7b 20 17 20 50 a7 bf 36 87 ba ca a3 82 d0 bf
       -0.04553318292914035 -0.25797362134663915
000140 5b 92 00 67 4a c0 d1 bf 6d 6f 66 5b 46 33 d7 bf
       -0.27736148890315854 -0.3625045673922987
000150 6d 5c c5 00 14 16 c9 bf 46 24 4c c9 f1 9c bf bf
       -0.19598627126353865 -0.12348853268135071
000160 19 04 39 3d 77 f1 b3 bf d5 41 f3 8c 53 b7 ab 3f
       -0.07790322537131579 0.05413304420074253
000170 15 c8 0d bb f1 d1 c2 bf 7c b6 50 f5 d0 52 cc bf
       -0.147031990370636 -0.22127735117230773
000180 4f ae e0 3c b2 40 ca bf bb 99 9b 32 cd 09 d2 bf
       -0.20509937260190944 -0.2818482393471659
000190 6a ac 84 60 6f 09 d1 bf 5a 9d 98 b4 a2 dc ad 3f
       -0.2662008707581608 0.058323940797260845
0001a0 7d d2 ef 5c e4 ff d5 bf 9c 24 93 4e bd 69 e8 3f
       -0.3437434108339302 0.7629076513923283
0001b0 f8 fa d3 83 cc 01 d0 bf d3 e3 33 dd 49 02 c8 bf
       -0.250109795320824 -0.18756984043991895
0001c0 03 8d b2 e9 6f 46 d6 bf b4 e1 dd ac 6a 13 d3 bf
       -0.3480491430475043 -0.29806010133281835
0001d0 b0 47 cb 9a 24 7d cf bf 74 9c dd 49 71 a6 c2 bf
       -0.2460065608816513 -0.14570442301485154
0001e0 95 b3 75 4b 65 b8 d1 bf d9 a2 ea 15 cf c1 c0 bf
       -0.2768796193038779 -0.13091457910674967
0001f0 40 ea c7 b9 e5 fe a7 bf 03 48 ee b2 62 39 d0 bf
       -0.046866587570509655 -0.25350253556928254
000200 fa 32 77 a0 98 56 d6 bf 8f 30 56 53 97 26 cc bf
       -0.3490354125067793 -0.21992770737813713
000210 45 d3 67 8a eb 29 b0 bf 5a 6b bd c1 4a 31 c4 bf
       -0.06313964966814208 -0.15775427303273198
000220 ce e1 1d f9 a0 12 b0 bf b7 46 e2 30 63 95 a6 bf
       -0.0627842529482969 -0.044108485905906596
000230 12 f1 31 d1 bc ff c5 bf 0b d4 13 de 1e 46 e0 bf
       -0.17186699118236298 -0.508559640641239
000240 2d e1 a4 ea 62 de cd bf 09 45 98 73 15 3b d2 bf
       -0.23334919411878144 -0.28485618866496104
000250 c7 5b e7 d3 72 2a c9 bf ef bb d3 85 ee 50 c8 bf
       -0.19660792681562908 -0.1899698403790064
000260 26 05 4d a1 47 ab e5 bf e5 5b 33 ad 83 16 b7 bf
       -0.6771581793219965 -0.09018729189425263
000270 5a 14 49 47 87 f5 cc bf ca 3a c3 b0 cb f3 d2 bf
       -0.2262429330895966 -0.29613010656332206
000280 9b 9e 27 49 9c 88 b4 3f 50 8a 73 16 b4 a0 d3 bf
       0.08020951066975572 -0.306683561253668
000290 10 f9 ed 4c f7 fe a6 bf f8 73 1a cb 5b 35 b5 3f
       -0.044913986340349266 0.08284543713166659
0002a0 92 d4 0f a3 82 9f b1 bf 3d b3 f0 b8 7b 46 ad 3f
       -0.06884018403055084 0.05717836983271816
0002b0 e7 80 7a 3c 1f 55 c7 bf 44 4d 3e 94 b4 d2 c7 bf
       -0.18228521779111093 -0.186117718109566
0002c0 11 ef 32 b4 83 c4 b7 bf 88 08 01 8f 01 fc d1 bf
       -0.0928423228205555 -0.2810062309764665
0002d0 c5 61 d6 2f 79 51 d0 bf 2a de 03 e2 b9 14 db 3f
       -0.25497274085639915 0.42314002105510673
0002e0 fd 72 8d 55 64 b5 c8 bf ef 2f 8a 50 aa f2 c2 bf
       -0.19303564240808405 -0.14803055698973774
0002f0 91 9d 7c 3d e8 00 82 bf 35 3a 1b b7 eb c9 d5 bf
       -0.008790792824199286 -0.3404492653034226
000300 69 0f 91 ce f2 e4 cc bf 57 e4 fd 75 24 48 c3 bf
       -0.22573695265065943 -0.15063911210362121
000310 af 36 56 7a 85 5e b2 bf 7d 91 34 3d 31 2c b8 bf
       -0.07175478207337947 -0.09442432159682386
000320 55 4b 6e a8 1d 1f b8 bf 55 9d cd c7 c0 69 ae bf
       -0.09422479021149617 -0.059400581731831416
000330 5e 45 c7 b6 00 7a c4 bf e5 3a 69 48 81 56 cd bf
       -0.15997322964407606 -0.2292024234361271
000340 3c 6a 87 90 dd df c5 bf e1 fd 23 86 8d 7f d2 bf
       -0.1708943324764095 -0.2890352067915654
000350 56 57 f0 6d 1e aa c9 bf 85 9f d8 98 4a 1e bf bf
       -0.20050411575419486 -0.1215559600028638
000360 a9 c6 3c 7a ef c3 dc bf ff b8 0d d4 24 3f d7 bf
       -0.44945895135161124 -0.36322899540290615
000370 f0 23 22 a2 83 e8 c2 bf 06 4a dc de c9 cf cc bf
       -0.1477207700411607 -0.22509120351658413
000380 50 d3 42 79 99 e9 d0 bf 06 b0 ec ce 8f 68 cd bf
       -0.2642577823819936 -0.22975347141016317
000390 39 9a cb 24 fd f9 a7 bf cf 46 79 4c a6 3a c6 3f
       -0.04682913850938459 0.1736648438841741
0003a0 89 f8 36 fb a5 fd d7 bf d9 9e e4 58 cf 9b c7 3f
       -0.37485646755875074 0.18444244232636356
0003b0 f7 d2 77 3b 83 cf c1 bf 8b f6 4b 67 e3 61 ce bf
       -0.13914528278078084 -0.23736231368814162
0003c0 e4 75 d2 4b 49 75 c9 bf
       -0.1988917942261842

bo f8 [121]
000000 76 35 18 30 a6 f7 e8 bf 8a b8 8d 96 89 30 c6 bf
       -0.7802306117388713 -0.1733562455296503
000010 79 64 d3 4e 2f 25 dc bf 61 42 20 4d 00 08 c2 bf
       -0.4397695798666699 -0.14086917653959843
000020 47 e3 d4 37 f2 a6 c1 3f 19 fd a2 9f 37 f6 dc bf
       0.13790729261543275 -0.45252791013258925
000030 55 b7 69 d1 bd a7 dc bf 46 82 80 df 92 14 ac 3f
       -0.44773812723621137 0.054844465048749444
000040 44 ae ba ea b8 e7 d0 bf ec be be 85 b7 9e e2 bf
       -0.26414320872092767 -0.5818746196946143
000050 fd 9e 75 42 da 76 e3 bf 39 88 26 b8 77 0d dc bf
       -0.6082583711658739 -0.43832200034569585
000060 15 cf 9b 53 be 11 e0 bf 5f cc 0f b4 8f 50 e5 bf
       -0.502165950105765 -0.6660841481046978
000070 56 66 5c c1 d1 58 d6 bf af 98 0c f1 92 f4 e1 bf
       -0.34917110331443746 -0.5611052234642296
000080 63 c7 30 a6 e8 93 db bf 91 00 7c 0e f3 b3 f2 3f
       -0.4309026358561054 1.1689329686924206
000090 31 4a e1 e4 ca 32 de bf f4 a3 0b a3 58 26 e1 bf
       -0.4718501315266251 -0.5359309372407766
0000a0 1f ed b3 46 06 04 d3 bf 4b a4 32 e0 97 4c d9 bf
       -0.29712063698362273 -0.39529988188093473
0000b0 5c 88 c0 dd 7e f5 de bf 5c 59 bf 68 0e 8e e3 3f
       -0.4837338605449355 0.611090855202558
0000c0 aa 36 42 ba 6e ca e5 3f fe c1 43 93 ae a6 e6 3f
       0.680961002146167 0.707846915842367
0000d0 e9 d1 86 d0 a1 3c c4 bf 44 c1 b2 3f b6 0d e2 bf
       -0.15810034448590152 -0.5641738170725508
0000e0 4c 06 02 fa e2 39 fe 3f 53 9c 5a 3f 48 fa eb 3f
       1.8891324773725442 0.8743020284063142
0000f0 77 c7 24 08 1a f1 e9 bf ff dd 4d ea 32 0e e2 bf
       -0.8106813582473781 -0.5642332626584333
000100 d5 cc fc 0b 3c e1 de bf 7e b0 77 b1 d1 40 e0 bf
       -0.4824972264352259 -0.507912489525111
000110 28 0a 10 e9 1f 66 db bf fc 4b 09 44 42 fa f6 3f
       -0.428108193969964 1.4360983522099096
000120 a7 55 46 d1 62 d1 bc bf d6 3c 96 93 7c ea c2 bf
       -0.11256997689482394 -0.1477809639586442
000130 dc f5 75 5e 2d 5b e1 bf 7c 8f 94 a6 08 8d 9b bf
       -0.542380032056538 -0.02690518871999313
000140 f0 70 38 d6 a1 75 de bf 92 b7 78 70 c1 ce 9f bf
       -0.47592969818084807 -0.03106214760753507
000150 9a 75 74 86 cb a0 d3 bf 98 98 c1 64 e1 36 e0 bf
       -0.3066891491924594 -0.5066992729087074
000160 e9 76 2c b6 20 01 e3 bf 53 e1 2b 4a 30 7f e2 bf
       -0.5938876684265014 -0.5780259560261051
000170 12 d9 28 78 81 a1 d7 bf f5 43 b6 22 ef f5 c1 3f
       -0.36923252806026696 0.14031781382485034
000180 84 59 84 2e 92 91 db bf 99 c9 c4 44 8e db d3 bf
       -0.43075995009112256 -0.3102756187028262
000190 9b 9f 14 a2 5d b5 b3 3f bd bc ee 1d bf e5 fa 3f
       0.07698617178959781 1.6810904664269366
0001a0 3e 2a de ec 92 6c e5 bf 03 01 2e 02 3e f7 0b 40
       -0.6695036531758161 3.495723740605287
0001b0 a3 28 17 c2 ee 92 d4 bf 55 e9 94 c5 03 74 de bf
       -0.32146805719515664 -0.4758309773930212
0001c0 2c 94 b6 d1 4e e5 d2 bf cf da 6c 4a 52 d1 b1 bf
       -0.2952458427410558 -0.0696002418234045
0001d0 ec 55 fb e4 0a 48 cb bf 43 02 6d f4 5c c9 dd bf
       -0.21313606434584587 -0.4654152285548074
0001e0 45 c2 5f cc 9e 2a e7 bf 89 6c d3 5d 8a a7 d9 bf
       -0.723952674072344 -0.40085086023982136
0001f0 c1 e6 ec 4d 30 89 e5 bf 7e 42 4e b6 c1 e0 e1 bf
       -0.6729966661434547 -0.5586861191423649
000200 31 50 31 e4 12 97 dd bf f9 5e 39 70 ff 63 e4 bf
       -0.4623458126491214 -0.6372067634465274
000210 6b 5c 43 7c 12 c1 da bf 16 65 7c c5 63 29 e1 bf
       -0.418034192419731 -0.5363024575373483
000220 b8 92 f9 01 dc 84 d5 bf 82 11 9a b3 e1 ce d8 bf
       -0.33623409455166664 -0.38762705363503625
000230 e3 df 80 0e 22 89 e1 bf 96 90 60 18 09 a1 b0 bf
       -0.5479898722905968 -0.06495720715662609
000240 e6 97 52 d4 8b d2 88 bf fb 6e 6e 99 77 ba e0 bf
       -0.012120335022995431 -0.5227621075350436
000250 e2 4f e8 eb 90 c6 d1 bf 9a fe 89 de 21 cb c0 3f
       -0.27774451291884195 0.13119910589374656
000260 c5 4b 8b 8b 45 5e 00 40 1b 91 81 85 f2 71 e4 bf
       2.0460310842404135 -0.6389095885793127
000270 17 3f 65 f1 13 df ba bf 4c 40 d9 61 1e 1f de bf
       -0.10496639865345646 -0.4706493335297679
000280 ea d7 23 58 d0 03 da bf 4a bf 09 db 27 5e e1 bf
       -0.4064827786199873 -0.542743614014378
000290 c0 2f ea cf b5 91 e4 bf 6a 48 73 90 92 f7 df bf
       -0.6427868901096119 -0.4994856272361462
0002a0 06 27 ba 60 fa 4c df bf f3 e5 9e 28 ae 64 b7 bf
       -0.48907336660396117 -0.09138000957218377
0002b0 79 ba 64 d8 65 e8 e1 bf b4 18 d2 d1 82 41 e3 bf
       -0.5596188761172264 -0.6017469499645558
0002c0 ec 35 c7 43 f9 3a d8 bf b9 df ea 9a d5 8a e1 bf
       -0.37859946841203285 -0.5481975579959829
0002d0 73 02 85 2c 8f c0 d1 bf 7f 94 81 cc 68 0e ef 3f
       -0.2773778853188908 0.9705089563618826
0002e0 fd 19 1e 25 70 e0 c1 3f 57 e6 9d 9a ba 28 d8 bf
       0.13966180622465166 -0.3774858961038254
0002f0 f8 f8 db d9 bd 26 da 3f 41 60 68 eb 54 bc b8 bf
       0.4086145999462043 -0.0966237139440418
000300 f2 e8 4d c0 f6 a2 e4 bf 3e 2b 89 4a f9 a7 e1 bf
       -0.6448930507606561 -0.5517546134736688
000310 23 c4 35 6e 57 67 db bf 87 09 0c 76 bf fd db bf
       -0.4281824661512152 -0.43736254241971334
000320 32 35 a8 07 4a 31 e0 bf be 64 f0 8d 2c ad a9 bf
       -0.5060167455245959 -0.050149338079970004
000330 9c 21 68 ce e1 bc dc bf a2 3c b1 58 b2 3c e0 bf
       -0.44902844578657564 -0.5074092609665011
000340 ee e4 77 dd 5e 35 dc bf 29 48 54 f6 a8 52 59 3f
       -0.4407574808861473 0.0015455865880693676
000350 18 d5 68 68 d6 81 e4 bf d4 35 0c 29 78 c1 e4 bf
       -0.6408493079422071 -0.6486168672287769
000360 f4 f8 9f bf b9 ae d8 3f 86 49 61 20 23 a6 c9 bf
       0.385664403089222 -0.20038260537200986
000370 c9 41 7e 81 7d 60 dd bf 64 cb 05 34 c1 60 a4 3f
       -0.45901429792232 0.03980067977945259
000380 89 d4 24 61 10 32 d0 3f 97 e4 a8 26 13 17 de bf
       0.2530556629820429 -0.47015837455143966
000390 0d c5 81 73 fa fa db bf 2f 79 96 d1 f5 1c f8 3f
       -0.437193501281471 1.5070703684828677
0003a0 bc 28 dc 3a d2 ed d7 bf 45 af 88 9e ca 5b e3 3f
       -0.37389045475050486 0.6049550148359023
0003b0 21 52 cc 45 bd 47 d5 3f 4d b4 c7 e5 12 17 b6 3f
       0.33250362220977264 0.08628957853189086
0003c0 96 d4 13 28 f9 b2 ab bf
       -0.05409983267046774

E.weight f8 [121, 300]
000000 d1 b3 8c d8 16 90 b1 bf da 73 63 c1 9f fa 93 3f
       -0.06860487734657218 0.01951074235772752
000010 43 aa 39 66 a3 41 b2 bf 88 92 bf 55 40 bf 81 bf
       -0.07131406064733263 -0.008665564171630238
000020 92 98 8f 8a 97 37 88 3f 7d 52 4e c6 f0 11 c0 bf
       0.011824783245128399 -0.12554750140101936
000030 09 1b bc fc 6e 26 9e bf 8b d1 9e b4 61 c2 70 bf
       -0.029443487334925886 -0.0040916267989142925
000040 01 ad 86 7a d8 db 5e 3f 89 a9 e7 71 2f 7e c1 bf
       0.0018834699677466318 -0.13666337072147552
000050 07 64 9c e5 c6 67 bb bf 80 5c 76 17 85 fa ad 3f
       -0.10705226045355697 0.058551940073066966
000060 40 d7 aa 8d 00 aa b2 bf bb e6 e9 21 33 b0 b7 bf
       -0.07290652712512458 -0.09253234460802677
000070 6e f7 7c de ff b9 9b bf 0b 80 ea 14 15 6a 99 bf
       -0.027076719240759876 -0.024818734552013704
000080 08 c3 df de cb 09 a0 bf c6 6c bc 42 21 c5 82 3f
       -0.0313247403681825 0.009165057992098002
000090 24 13 f7 30 f2 74 89 bf c5 b5 b3 4c 59 f9 a9 bf
       -0.012430088156983717 -0.05073050557426088
0000a0 b4 62 ac 1d bb 8e a3 3f 83 96 11 13 be 96 ab bf
       0.03819832551216021 -0.053884448840830344
0000b0 4c 01 13 fd 7e 28 9b 3f e2 cd 79 d5 28 33 c2 3f
       0.026521667667794888 0.14218626426337183
0000c0 64 41 85 2b d8 2b 66 bf 6d 85 13 00 1d 60 90 3f
       -0.002706453520808493 0.015991643075613227
0000d0 07 fd 9e 5e c1 73 c0 3f 7d 14 e7 68 bf 36 a2 3f
       0.1285325729386175 0.03557394176054005
0000e0 e4 99 fc 58 2d e8 a2 3f 75 63 fe cf a0 8e b0 bf
       0.036927620995175464 -0.0646763332173473
0000f0 12 41 97 37 3a 99 ae bf 97 32 bd fe 52 ca b8 3f
       -0.059762782369604875 0.0968372222825543
000100 6b d8 69 f0 b4 01 b0 bf c9 8f db b7 a6 47 a6 bf
       -0.06252604360074236 -0.043515405601084085
000110 06 25 46 fb 4d 6f ac 3f f7 f6 6a 75 41 6c b1 3f
       0.05553668682393646 0.06805810085912954
000120 6c c5 9c 94 ba 6f 77 3f d0 63 8a 4f 66 1a a5 3f
       0.005721787290711471 0.041217038354438906
000130 f9 ff e5 f4 dd 5a 73 3f 4d 7c b0 21 a3 2d 87 3f
       0.004725329416373819 0.01131751486360435
000140 3c 63 41 20 40 93 a8 3f ac ad f0 26 ec 5f b2 bf
       0.047998432099751714 -0.07177616072356469
000150 81 9e 35 b3 df 13 a7 bf 2b da 32 60 c6 de 81 3f
       -0.04507350027671198 0.008725690661191518
000160 84 29 29 62 d5 55 88 3f f8 d3 6a 97 0c 8e ac 3f
       0.011882464464311189 0.0557712492785995
000170 f3 50 6f ce 80 32 c1 bf c7 88 b4 01 a5 ce 81 bf
       -0.1343537338240207 -0.00869492446378607
000180 73 db 80 1c 68 19 94 bf 20 b8 28 b3 5a 53 a5 bf
       -0.01962816881151803 -0.041651567811968215
000190 cf 3f ac 41 5b c6 88 bf f3 90 d4 6d be 40 78 3f
       -0.012097084943462648 0.005921119559648458
0001a0 08 be b8 a8 71 9d 95 3f ac d9 64 d3 0b 74 a1 3f
       0.0211084136228106 0.03408848720066557
0001b0 2a 30 59 ed 6d 5b bd 3f d1 1f d9 60 75 a6 a4 3f
       0.1146763519729467 0.04033247763851445
0001c0 96 7e 64 fd a1 37 68 3f a0 95 4b e2 41 51 89 3f
       0.0029562152732436993 0.012362017363055255
0001d0 9d 7d 9a 4c ca c2 99 bf b2 c5 40 c9 ae 0e b3 3f
       -0.02515712826300175 0.07444279111293531
0001e0 b1 13 b2 bb 6b df a3 bf 6f 29 e4 6a 5d 94 b8 3f
       -0.03881394067960942 0.09601386890077433
0001f0 b7 3b 96 e5 94 87 93 bf 84 e7 f5 39 93 14 ab 3f
       -0.019071890366429502 0.05289135057951369
000200 d1 a7 42 fc ce 27 91 3f ce 99 e9 5b f1 f9 8b 3f
       0.01675342001605157 0.013660321824500079
000210 58 7b 58 30 d5 23 77 bf 27 6a 40 d8 63 d7 8c 3f
       -0.005649407166429331 0.01408269885728426
000220 71 1d 3d 86 6f df b0 3f de ad 63 4c a2 f1 90 3f
       0.06590935733139759 0.016546760475575677
000230 25 4a e5 2f f5 75 a4 3f d4 cb 47 c1 8c d7 89 3f
       0.03996244630493021 0.012618159912539818
000240 11 e1 91 f0 a7 cf 96 bf 3e 20 ca 84 cd 18 9b bf
       -0.02227651983091145 -0.0264618027017891
000250 7f 2a 4a ce 15 57 90 bf dd f1 45 b8 de fb 87 bf
       -0.01595720359413599 -0.01171087264878506
000260 56 d7 6b 01 78 fd a5 3f 29 3b c4 09 59 16 4b 3f
       0.042949438260548575 0.000826638675364898
000270 ef 1e 1c cc 34 22 a6 3f 03 cd 2a 1b 55 d1 8e bf
       0.04322972289634019 -0.015047707454277864
000280 d4 0f e9 fd ac 02 8f 3f 11 21 dc ac 1e 7e 97 3f
       0.015141822336893464 0.02294204645207382
000290 ba 18 3c d2 bf c9 b3 3f 45 85 25 e6 fc 18 80 3f
       0.0772972000378073 0.007860160611644526
0002a0 a0 33 bb 6b ac 05 87 bf da 41 6e 37 cd 16 78 bf
       -0.011241290128418957 -0.005881120326094858
0002b0 e5 c2 fb c8 c8 eb 7a bf f0 8f 26 99 c5 43 b1 3f
       -0.00657251769710918 0.0674403666403689
0002c0 d2 aa 9a 2f 86 b7 a5 bf 77 24 bc 5c d3 25 b0 bf
       -0.04241580325227336 -0.06307717336689388
0002d0 b2 73 3b be 1c ed 99 bf 61 ab 89 8c 25 d3 a1 3f
       -0.02531857405743993 0.03481404629277197
0002e0 84 df 62 a5 d8 23 9b 3f a6 2e 42 95 18 c3 78 bf
       0.02650393018185994 -0.0060454330706637745
0002f0 8f 97 d2 54 a1 4b 85 3f 7e 14 86 90 42 c4 b4 3f
       0.010398159409600342 0.08111969021236295
000300 06 02 7e 13 f3 dc ae 3f 12 35 53 25 5d 7a 88 3f
       0.060279461030408085 0.011952140523499941
000310 b6 32 aa 42 ab 4d 78 3f 03 17 17 d5 67 21 a1 3f
       0.005933445917105365 0.0334579894657008
000320 79 f1 c8 31 15 a7 a5 3f e6 cb fc 52 35 b0 c4 3f
       0.04229036553121807 0.16162745048640587
000330 e4 d8 a1 a2 27 51 a6 bf 7f bd 6a ef 2a 12 88 3f
       -0.043587912180486105 0.011753402167726133
000340 61 7b 14 db d0 e9 80 3f 2e b8 cc ff 15 78 a1 3f
       0.00825846832827687 0.034119307971522836
000350 21 d7 91 f1 cf f0 b8 3f 9a 9a 19 ad 90 2b 9c 3f
       0.09742450378129465 0.027509937825380783
000360 8c 51 9e 27 97 1b bf 3f fe cb 2d 9d ae 15 b8 3f
       0.12151474683043356 0.09408084237456646
000370 e3 bf 7b a0 d6 5b 7a bf 81 81 1c 9e e5 e0 a5 3f
       -0.006435240160257624 0.0427314525134106
000380 28 09 89 c9 f3 74 8b 3f fc 0c 77 a6 cb 96 71 bf
       0.013406662547940387 -0.004294200428776703
000390 7d ee db 8a 82 d0 8f bf 1c f5 d3 ee 91 93 ae 3f
       -0.01553441988243453 0.05971962013607365
0003a0 d0 40 96 ee 38 23 b2 bf 71 a4 41 4d 16 f6 b3 bf
       -0.07084995102764258 -0.07797374139922099
0003b0 51 d9 15 6c 39 9e 9a bf c4 5d 01 66 52 d9 62 bf
       -0.02599420282555204 -0.0023008927674188235
0003c0 d6 71 99 f6 af 11 a5 3f e8 41 85 7f 0c 98 ac bf
       0.041150568821396824 -0.055847540441962995
0003d0 a9 54 7e d3 5b ca 83 3f 3f 87 ed 37 92 97 a5 3f
       0.00966331233193281 0.04217202122414542
0003e0 1b 2e 32 b8 65 fd 89 bf 51 d4 50 75 9b ea a0 3f
       -0.012690348323551473 0.033039911337632184
0003f0 7f b9 39 b9 75 22 99 3f 21 fa 5d 9d c2 55 a2 bf
       0.024545516424433252 -0.03581054850564081
000400 35 a8 05 4e 7e 39 b2 3f 1f 3e a3 42 bf 27 ce bf
       0.07118977932773947 -0.23558798555176083
000410 96 6a b0 c3 b5 7e a3 bf 7d 8d 9b a0 34 e8 a6 3f
       -0.0380760957125023 0.044740337949202826
000420 f4 81 50 c1 2e 3e 8f bf f7 1e a3 2c 80 0e c0 bf
       -0.01525532271813377 -0.12544252566862443
000430 1c 93 ba 5b 65 de a1 bf 0d f5 8a d5 8b 58 bb 3f
       -0.03489987129913727 0.10681985820243174
000440 90 00 44 32 94 9c af 3f 0d 07 7e c8 d6 76 80 bf
       0.06174147714227829 -0.00803916739801338
000450 79 8d a9 98 b7 62 72 3f 78 df 5e 29 46 63 69 3f
       0.004488675282661497 0.0030990953773332684
000460 ac 76 b6 bb 65 54 6a bf 1a a7 43 4f 36 21 93 3f
       -0.003214071939239135 0.018681381786257757
000470 c1 70 63 e1 c8 7c 94 bf 06 53 cb fb 66 31 93 3f
       -0.020007265812510115 0.018743142240810882
000480 45 a4 69 ff 30 a8 9b 3f af de 7f 13 70 96 84 bf
       0.027008786763335974 -0.010052562327458629
000490 eb 7a 80 1f 01 a9 a5 3f 81 7a 94 02 ba ba 93 3f
       0.04230502614540462 0.019266992957563737
0004a0 c4 e2 a0 d7 27 f1 a0 bf 55 79 5c 63 36 c6 a3 bf
       -0.033089871475060956 -0.03862161600976558
0004b0 26 15 f6 de 2b e0 a3 bf 6a ca d0 61 c6 fd a3 bf
       -0.03881966683096953 -0.03904552406347224
0004c0 f6 8d 61 2a 75 65 b2 3f 64 64 45 a5 a8 ab b7 3f
       0.07186062130636359 0.09246305499017776
0004d0 d7 da ac 05 ee ca 97 3f 26 bf 08 44 b3 20 a3 bf
       0.02323505315436133 -0.03735885816092681
0004e0 71 ca 61 98 af 1c ae 3f cd 28 e6 c6 5f dd 93 bf
       0.058812606192891866 -0.019399162783465585
0004f0 84 b1 7b d3 3d 1e 99 3f 7e 22 d0 16 6c b3 a7 bf
       0.024529424698742655 -0.04629075792769742
000500 f9 ac c5 82 81 01 85 bf 22 97 f1 5b 80 87 a1 bf
       -0.010256778529500897 -0.03423691866264124
000510 0f a5 5b da 0e 33 99 bf c0 1a d8 a8 31 a6 91 3f
       -0.024608833386911274 0.017235542231015755
000520 71 37 e3 83 58 5d 98 bf 60 2a 0c 73 d2 56 57 bf
       -0.02379358582475483 -0.001424508587833849
000530 9a 51 a1 32 08 8c a4 3f f5 ab d1 3f 3b 59 98 3f
       0.04013085954707947 0.023777890939907526
000540 61 d4 48 8c 63 32 b2 3f d9 ad 54 68 a6 5c 9b 3f
       0.07108137297548602 0.02672061931404621
000550 c4 13 0f 45 11 4c a0 3f 15 e4 7d a4 ea b2 98 bf
       0.03183034866336912 -0.024120012559681287
000560 4a 83 7d 29 7b f1 a1 3f fd e5 72 2b 28 91 84 bf
       0.035045479597789767 -0.010042489839508834
000570 13 79 a0 36 4a 2d a7 bf c3 70 7a d7 db e8 b2 3f
       -0.045267409485164965 0.07386564264965316
000580 5e 56 8f 57 ec a3 99 3f f4 91 bb e5 c1 49 a1 3f
       0.025039379924996268 0.03376584939340779
000590 68 5c 3b cc db 37 80 bf 43 0f ee cf 23 dc ba bf
       -0.007919041795885387 -0.10492156816877433
0005a0 48 48 52 b8 5a 5c a7 3f cd 67 d4 62 17 31 a1 3f
       0.04562648296372679 0.03357766229073853
0005b0 b2 50 61 df 7d c9 a9 bf 2c 8f 15 68 a1 c7 71 bf
       -0.050365384595950316 -0.004340773100327582
0005c0 20 85 d7 c7 22 e2 97 bf 99 84 c0 ed e8 39 7a 3f
       -0.02332357735383994 0.0064028834131316876
0005d0 ab 15 0f 84 ee ed ac 3f 0f 1a e9 eb 71 f6 93 3f
       0.0565027748303167 0.01949480059036018
0005e0 94 49 77 d9 39 85 b6 bf 81 bd 9c 8e 86 f1 b3 bf
       -0.08797036704280564 -0.07790413839096823
0005f0 5a 2d ab 5a ad 48 9c bf 60 ae 8e 0e 2e fd bc bf
       -0.027620991381622197 -0.11323821883586893
000600 23 19 79 09 63 2d b3 3f 2b 42 27 8c 6b f7 a3 3f
       0.07491129857325922 0.038997040613711974
000610 79 d2 a5 b8 b4 70 76 bf 9b 81 aa fb 27 b4 c3 bf
       -0.005478578512669524 -0.1539354304159247
000620 33 51 eb de e9 5c 78 3f b6 1d 54 1c f9 c3 99 bf
       0.005947984273650331 -0.025161640504874426
000630 4a c7 fd e8 7f 86 9a bf e3 b7 c9 75 d0 a0 7f 3f
       -0.025903700442945245 0.00772172384004752
000640 2f c0 33 1c 4e 72 a8 bf da 69 b3 2b 09 1e a2 bf
       -0.04774707884087125 -0.035385405144285634
000650 78 e4 75 3e 09 0e a9 bf 8f 38 65 b2 9b 64 9d 3f
       -0.048935212015700225 0.028704102290526164
000660 79 6f 71 5b 4b 24 a4 3f 26 ab d0 6d 6c a8 b8 3f
       0.03933940402268283 0.09631993943245884
000670 5e bc f9 25 bf e7 a6 bf 3a 44 d0 90 8d 2b a0 bf
       -0.044736836801228405 -0.0315822829508154
000680 ec 63 fd e5 1b 9e b6 3f fb d5 67 35 85 f6 a0 bf
       0.08835005154595849 -0.0331308009807962
000690 85 b7 55 5d a4 87 a5 3f cf 46 96 02 e0 08 af bf
       0.04205049170819478 -0.06061458617763337
0006a0 40 29 d5 73 04 1b a3 bf 30 42 3b a6 43 a8 bc bf
       -0.03731550134632977 -0.11194250877748213
0006b0 da b0 4c 6d 2e 42 c3 bf 7d 8a 3e d6 cb be 9a bf
       -0.15045719468014945 -0.026118454886850707
0006c0 ff 7a cc b8 9f ee 9b 3f 2e 6b b7 64 0a 58 a0 3f
       0.027277465490551652 0.031921696466915214
0006d0 7c 71 a9 f8 40 9d 8f 3f 0b ba 48 0c 25 5e a7 3f
       0.015436656559523192 0.045640142201921995
0006e0 7b 26 fe b1 1c 67 93 3f e9 42 44 3a be 7b 82 3f
       0.018948028911415876 0.009025083687931939
0006f0 4a fe b6 48 50 f0 a7 bf 8e 61 7d 8c 0a 68 9b 3f
       -0.04675532233840991 0.026764073204817822
000700 48 35 79 5c b5 a9 b1 bf 32 22 40 c6 8e 3e 95 3f
       -0.06899579532292421 0.020746451235057424
000710 59 dc 66 0e bc 4a b1 bf fd bd f5 79 24 4e d3 3f
       -0.06754660941702308 0.3016444388403839
000720 03 bf e7 e5 03 90 80 bf 31 46 12 b5 78 c5 a1 3f
       -0.008087187245990451 0.03470971308082616
000730 dd d1 79 62 5a dc 60 3f e8 b7 30 41 73 d4 bc bf
       0.002058197529374291 -0.11261673299370012
000740 ce 13 02 c8 6b 46 ad bf 70 47 d9 b3 65 fd b0 bf
       -0.057177894749692024 -0.06636653557623418
000750 47 68 5d 9d f1 99 b8 3f 9d b3 2f a6 e1 3d a1 3f
       0.0960989960853179 0.03367524293557909
000760 59 4e 1b 98 68 fe aa bf 58 e3 4e 82 0b da 54 bf
       -0.05272223336001209 -0.001272689093850773
000770 f2 fd 14 52 55 9c 67 bf 16 7e 2a 11 f3 19 a5 3f
       -0.0028821627062425243 0.04121360382600529
000780 7c 8b f2 07 76 c9 a2 bf c3 b1 7d 74 f0 21 a6 3f
       -0.036693275900026884 0.043227686138240816
000790 2c db 60 d5 b7 35 a7 bf 88 e9 5d 8f b6 96 9c bf
       -0.04533171157566182 -0.02791867494622971
0007a0 d5 e6 d6 16 e3 ac 5b bf a3 28 5b 6d d0 d7 8b bf
       -0.0016891687076693769 -0.013595226609499916
0007b0 15 f3 39 97 c9 cf a4 bf 22 e1 11 93 23 00 bb 3f
       -0.04064779253983467 0.105470870404933
0007c0 5e 10 c6 1b 99 73 b6 bf 25 67 47 33 0e c1 92 bf
       -0.08770138671940361 -0.018314573173348187
0007d0 5e 3a e8 99 fa 50 95 3f 97 63 a2 8e 5e 06 8e bf
       0.020816722530123115 -0.014660586097578405
0007e0 a0 24 0a 72 96 0b aa 3f dd 85 90 c3 b9 2f a1 3f
       0.050869656964161125 0.03356724273931964
0007f0 49 ed f6 0f d9 8a a1 3f 4e 80 c7 98 9d 2e a9 bf
       0.03426245040778981 -0.049183773898903924
