Analysis_tools/Latent_space_traversal/poincare_model.pth (torch, 352267 bytes, 5 tensors)

Wu f8 [12, 300]
00000000: b32d 2aaa e299 c7bf 1b1a 539f bc75 ecbf
00000010: 2870 b562 ef84 e23f 4c00 47e1 cde6 dbbf
00000020: 3bdc 929e af68 b9bf 6748 2713 6f3b d9bf
00000030: 4817 8d88 0bf7 aa3f 0d66 f6d0 bcb3 cf3f
00000040: 0271 16ea 4db8 e13f 5f0a 5a88 c5da d73f
00000050: a2f7 857a f7a1 ee3f 2f6f 38df 3ad9 c93f
00000060: cf4e eebd 251c e43f 8497 ca5f dbab da3f
00000070: 15bf 4b5e a944 eebf 1f9f d8bf 8601 ea3f
00000080: 98af 505e 28e2 babf 9da1 4edf 5365 e8bf
00000090: 78b0 e399 2d79 e53f 8d12 6134 50fc e2bf
000000a0: 7542 b883 a4dd e4bf 4eb8 4562 517c babf
000000b0: 62d2 4e56 54bd d53f 4edf a65e 9b5f ed3f
000000c0: 275c 8b8e 075b e53f 3c81 c8f7 f854 903f
000000d0: b25b 602d 319e d03f 0b40 ba89 6081 e53f
000000e0: 4731 5f55 27fa babf a643 9c08 11c4 e03f
000000f0: dc1d dd98 1087 d13f 40c2 bb94 748d d1bf
00000100: a1ab e9ee 034d efbf 5a8d 7784 3f6c b53f
00000110: 8c81 b827 654c d7bf 2a76 587e fcba e6bf
00000120: fac2 1380 b04e b73f 1468 419b ba01 e4bf
00000130: ca4a 993b 84e1 c9bf d638 a1cd 7eb8 e0bf
00000140: a84e 868f 6ab3 edbf 4590 cc67 ff7a c13f
00000150: 1891 fd3a 6203 eb3f 62b6 4e41 518a e4bf
00000160: d74c 43ef 2fff d93f 76eb 8ba6 ea36 dc3f
00000170: f6aa aee8 6f0b eebf ef52 e45b 3335 c53f
00000180: cfc5 c237 094e d93f 7f53 0514 f43b ea3f
00000190: edcd b732 42ad ed3f fff1 39ea b07e e53f
000001a0: 643e 3aa2 e3df ec3f 69eb df08 982b 8c3f
000001b0: 72f6 3cc9 8aaa e3bf 176a 2cd4 6694 ebbf
000001c0: bed0 6ecb 2256 eb3f 0241 9f7b 77dc cbbf
000001d0: 292c 54f1 2c82 c7bf 4fe4 961f cb1a e5bf
000001e0: a100 e03a c42a e5bf 434b 04a5 e0f9 933f
000001f0: b6f4 fdfd 6a60 d4bf 7628 898e ed14 b6bf
00000200: b2a4 b897 afeb ecbf 1edd b94a f62b dfbf
00000210: 2a21 012d 46f4 ea3f 09ed 5b1e b664 eabf
00000220: 40cf bbec 13e7 cc3f e52d 5f91 6017 e03f
00000230: 30ef 9cb2 ce3e b0bf 7fc3 42b9 acd6 d03f
00000240: f3c0 db6c 3146 c2bf fb17 32ae 8b0f ee3f
00000250: 7e0b 875d 054f e83f 09fd 37e8 766e e8bf
00000260: 68b7 2008 2f16 ebbf 5e22 12b7 a14b e93f
00000270: 83f9 28a0 f94b efbf 8e98 d6da eb7d df3f
00000280: 3d09 7552 d99e e7bf 3933 52d0 af97 e6bf
00000290: 9ca8 b505 9fbd b6bf 434b b2bc 1db8 e43f
000002a0: 4bae ebb0 8f39 c9bf b947 93a9 f447 d43f
000002b0: cafa e508 e641 cebf fcf4 8ab8 ffac eb3f
000002c0: 7861 b300 8cf1 e6bf f14e 15f9 4873 e73f
000002d0: 4b17 fd53 6e12 92bf cbe3 09ea 949b e7bf
000002e0: 6036 902e 2222 e83f 5dbf 4b38 ccd5 e8bf
000002f0: f057 a7bc b87f a83f 803e 2a34 fe46 dcbf
00000300: 76c9 34ff a981 e4bf 972f 2898 b002 d53f
00000310: 8b24 cf7c dc35 a43f 9906 4f8e 1bee dabf
00000320: baa5 dfbf eff6 da3f bf30 57f6 858c ed3f
00000330: 667d 3125 e3bd efbf d98e 2585 ce0f e2bf
00000340: e8cf a03b c404 b4bf 6e1a 3b6e ee37 eb3f
00000350: d4ae 51f9 08b1 c8bf da14 a08a 39c7 e93f
00000360: 43b1 ac64 7449 ea3f fbfb eed1 1ae1 b6bf
00000370: 3ad2 1a5c 98c3 df3f bc25 a43a 072a e0bf
00000380: 186c 508f d723 e13f 1257 bad5 3db1 e33f
00000390: d29c b572 902a ee3f fa49 e3da 84a4 e23f
000003a0: 773c ad58 b802 cf3f 2e37 2b5b 6d2a edbf
000003b0: 39bc d0de e2e5 c83f 623c 9ad1 45eb debf
000003c0: 5119 6667 9550 cebf e479 bb51 0242 c83f
000003d0: a115 e0a8 6282 dfbf a8e2 492b c6f9 efbf
000003e0: 26f1 1d15 a9f6 e2bf e12f 0fc6 2ec0 cfbf
000003f0: 42c7 c297 b63c 49bf 3a3a 1570 ec6f c0bf
00000400: 2ee9 c0f6 6289 c3bf 1219 ddf9 3ac7 d9bf
00000410: 4672 9864 1a8f d63f 3b7b 7c85 45ed c63f
00000420: 9327 01e1 51bc e63f 0233 956e 2916 efbf
00000430: c115 239a b5ba eabf ae41 f4cd b629 a13f
00000440: 148d 872a 1d21 ddbf 0c54 a617 fdb5 b33f
00000450: c1f0 2d53 9cbe e8bf 9258 7723 9a09 e43f
00000460: c842 f348 fbdb ea3f bbb6 a7a6 d17f ef3f
00000470: 355b 349b 979a e0bf 9cb8 21a9 f2f2 dd3f
00000480: 2af3 6e2e 3ef4 ecbf 44b2 c334 7143 dbbf
00000490: c6bd fc6f 6251 e43f fd6b 5711 006f b5bf
000004a0: 353e 6fc9 352b c6bf a662 071b 89e1 ddbf
000004b0: 90da 83df cd44 e7bf cf99 6322 31a9 da3f
000004c0: 445a df75 2a51 c6bf b678 8344 c841 b1bf
000004d0: 70f5 c809 a3b9 cbbf 6c33 7f72 25ba d7bf
000004e0: db36 58fd 5e1d d5bf 89ab 3ba9 1f6c ebbf
000004f0: f8ba 716f 3b51 d83f 88a5 96bf f020 e8bf
00000500: e410 1df1 9920 cb3f 027a b680 bbfe e63f
00000510: f057 2d7d 1530 efbf 3dee c166 ecb1 d43f
00000520: fff2 1080 de66 e2bf 5c63 22b8 1c4d d13f
00000530: e6c1 180d 44d6 debf 1640 ed69 b247 ecbf
00000540: 54cc 019f c6b3 dabf aebf 07ab 76be ee3f
00000550: 51cb 0d34 5a3e d6bf a093 82c7 3755 e8bf
00000560: 8b90 a509 3c83 733f 7320 df56 152c a83f
00000570: 0678 d4f6 6325 e93f 75a6 c351 94b6 e13f
00000580: 7ac0 7df2 1dc1 e9bf 8f4d 3210 c25e e1bf
00000590: 10eb c365 d2d0 ab3f c4c3 af49 754a e03f
000005a0: 640e 4f95 fb68 e33f 993b a14b c626 e93f
000005b0: b8b3 0d4d 7efd e7bf 4a2f e23a 7ee0 e23f
000005c0: ba40 f704 3672 de3f d7a0 bf85 fb80 debf
000005d0: a1d1 4cf7 dda1 de3f 4150 0cc4 bb5e e13f
000005e0: cd24 5732 3a9a d63f 812d 2d6c d968 ea3f
000005f0: 2179 2f18 91d0 bbbf fa91 bcd6 ef3d d5bf
00000600: 8507 0983 d111 dd3f 8797 929a 7b8e eabf
00000610: 1113 cc44 bb87 da3f 1f2d ab5f cc46 c8bf
00000620: 32b1 04a3 28b2 c33f 83c1 598c 8959 e0bf
00000630: e494 22c0 d036 dfbf 0304 b16a d765 d9bf
00000640: 5e7e d8c0 7c5b efbf f869 2803 61aa e1bf
00000650: 5324 dc1f 95e3 cabf 2eab 713b f1d8 eabf
00000660: 4ac7 113b 120b eebf d160 f6ee b69a e33f
00000670: 063f ba24 d774 d3bf 6ca3 cb1c b2d3 efbf
00000680: 5892 daed 8b88 e83f 0245 e079 91ed d3bf
00000690: 9ad8 4293 49df c6bf 5a19 f9b9 d952 ef3f
000006a0: 54d9 8af3 40b0 d8bf 2277 cce8 1fbe e43f
000006b0: c929 b309 15b5 c03f 6517 b492 8fdd c13f
000006c0: e0ae b3af bb69 e2bf 3138 c4bb 521a c9bf
000006d0: ced9 02b9 531e d83f c2a6 3b20 b41b ce3f
000006e0: c120 6c87 4f29 ea3f 13ca a719 5b48 eebf
000006f0: 9ddf e7c8 3e12 e3bf fe68 083d 43a3 bbbf
00000700: 99d1 5a15 81a7 ef3f 8408 e6bd 8d82 efbf
00000710: db1b 0c1d abf6 edbf e2ad 04d5 f6e1 d23f
00000720: 9362 a2cf 0c5c e63f 9439 96a4 c134 d63f
00000730: ae29 a365 2f27 b5bf 1ecf dee4 b3b2 e4bf
00000740: 162c a2f8 2564 afbf 1e97 e51c 7a24 debf
00000750: 20bb f014 04e3 e43f 5065 f107 b2ce db3f
00000760: fe65 025c e4da dc3f 1ffe 132a d232 b4bf
00000770: f1d2 f29a cc5c de3f 0fba 43d5 97ca e03f
00000780: f271 24b0 0b38 e5bf 04ce b824 759b cdbf
00000790: 9c35 0ec4 9496 c63f cd57 d28d eaea d33f
000007a0: a6f6 578c 433d b63f af58 ce8b bdbe b8bf
000007b0: 5283 33f1 43e4 ad3f 2cf1 e461 5f2d e8bf
000007c0: 5dd6 931c 1774 d7bf 52ae d242 fac1 e43f
000007d0: d8ea 95eb b418 e3bf 5aaa e924 7b03 753f
000007e0: 856e e802 76ca d0bf 243e ce64 f556 e63f
000007f0: 25a1 6952 28f4 eabf bef6 cbd2 39c2 eebf
-0.1843837099917046 -0.8893721687134674 0.5787274291901712 -0.4359621715520958 -0.09925363179614603 -0.39425255651906926 0.052666054171409515 0.24767265513655481
0.5537480899834295 0.37272775951001863 0.9572713273080249 0.20194183253703943 0.6284359654987045 0.4167393146002427 -0.945881542369508 0.8126863238330521
-0.10501339247337993 -0.7623690949886172 0.6710422521259849 -0.5932999632864991 -0.6520559857036249 -0.1034594407007898 0.339680752072388 0.9179207657498212
0.6673620018071958 0.015949144481170338 0.25965527945794087 0.6720431032172213 -0.10537954172395302 0.5239339035198227 0.2738687031564646 -0.2742587521052293
-0.9781512895836962 0.08368298515374786 -0.36403778914429874 -0.7103254764257987 0.09104445578465095 -0.6252110512098192 -0.20219471845719844 -0.5225214019972337
-0.9281513980117397 0.13656609123529698 0.8441630508573637 -0.6418844485794575 0.40620039334789965 0.4408518434935823 -0.9388961357666108 0.1656860541048881
0.39538793988603244 0.8198185339957574 0.9273997297845519 0.6717152189954162 0.9023302238947051 0.013755023737749021 -0.6145681314880689 -0.8618654388440657
0.8542646382616323 -0.2176656106589761 -0.18366014274246936 -0.6595206849079974 -0.6614705228712588 0.019507894584488438 -0.31838488391788233 -0.08625683526875769
-0.9037702525430602 -0.48705823228324785 0.8423186186783245 -0.8247938721609965 0.2258019357610639 0.5028536643307545 -0.06345836506528424 0.26310270397066654
-0.14276712241508668 0.9393976595172256 0.7596461130818708 -0.763484433700712 -0.8464579733606401 0.790482385215977 -0.9780243042112463 0.49206062670635553
-0.7381407366267819 -0.706016451718461 -0.08883088960070257 0.6474751172521355 -0.19706913126661826 0.316891828156368 -0.23638606485834252 0.8648680309630943
-0.7169857038198151 0.7328228821665715 -0.017648433567294657 -0.7377419062678369 0.7541666898193391 -0.7760983562020375 0.047849438694967605 -0.44183306783904897
-0.640828131150825 0.32828917368964866 0.039473428950779064 -0.4207829370244354 0.4213218091741414 0.9234037219371415 -0.9919296003753686 -0.5644295311471651
-0.07819773154989174 0.8505775597521514 -0.19290268110068232 0.805569430115294 0.8214666334438693 -0.08937232613878614 0.49631318087202525 -0.5051304002128556
0.5356252478699188 0.61538593047837 0.9426958313387337 0.5825828814652703 0.24227051095883542 -0.9114290981903872 0.19451557044655646 -0.48310990780823293
-0.23683421658297246 0.18951443663441048 -0.4923330926106591 -0.9992400022011525 -0.5926099216881411 -0.24805245085587926 -0.0007701770369037202 -0.12841563675688566
-0.15263020561708046 -0.40278505707500856 0.3524843199136608 0.1791159536159855 0.7104882616633738 -0.9714553031750202 -0.8352916727532645 0.03352137817467181
-0.45514611390372406 0.07699567630182019 -0.7732679009054878 0.6261721317957998 0.8393532204446155 0.9843528990729377 -0.5188711196268289 0.46795336262483445
-0.9048148066427519 -0.42599134590890153 0.6349346339465505 -0.08372497962356813 -0.17319366775198977 -0.46689059867416416 -0.7271489491966623 0.41657665594393917
-0.17435198550693276 -0.067410008170074 -0.21660268762381518 -0.3707364671834543 -0.3299176668232186 -0.8569486909230913 0.37995801814297137 -0.7540210477792906
0.21193241379854222 0.718595267669855 -0.9746196217408833 0.32335958514133606 -0.5750572682660219 0.27033155423992183 -0.48182774809813933 -0.8837520665056242
-0.41722264793424313 0.960749944728368 -0.34755568583857605 -0.7604025742226561 0.004763826868245623 0.04721132932132912 0.7858142681977831 0.5535375210722139
-0.8048238502651792 -0.542817145952016 0.05432755939724221 0.5090891303244622 0.6065652767360459 0.7859832265038335 -0.7496940140678054 0.5899039411610627
0.47572088704056237 -0.47662246762639654 0.47862958097837277 0.5428141430916257 0.35316328922324375 0.8252989876577176 -0.10865122642960447 -0.3319053265607007
0.45421254917538817 -0.8298929232594084 0.4145343944403957 -0.18966059371300845 0.15387447318915687 -0.5109298459265549 -0.4877206684416946 -0.396840910139929
-0.9799178854481843 -0.5520482122113313 -0.21007026725445374 -0.8389822159782392 -0.9388514665317669 0.6126360575899757 -0.3040063723246792 -0.9945917665873885
0.7666682859022087 -0.31137501623113917 -0.1786891907738138 0.9788635856901167 -0.3857576731055776 0.6482085749482602 0.13052618955255316 0.13957400000816303
-0.5754068786313518 -0.19611581962857508 0.3768510157346129 0.2352204472911606 0.8175428051918275 -0.9463325024683534 -0.5959772037449401 -0.10795994033870568
0.9891972939572496 -0.9846867283779521 -0.9363608901338653 0.2950417595154403 0.6987365775449511 0.3469699961941839 -0.08262916785603266 -0.6468142957805616
-0.06131094608380054 -0.47097637960392713 0.652711907290584 0.43449068809203073 0.4508601091889374 -0.07890046622559808 0.47441401607220174 0.5247306027720827
-0.6630915107994595 -0.23130668919621666 0.1764703709890626 0.31121314859171606 0.08687231232030487 -0.09666046775086799 0.05838215178824292 -0.7555386459348816
-0.3664605883671806 0.6486789040695362 -0.596765957000879 0.00513027289580722 -0.2623572376630608 0.6981150597438881 -0.8423043832417859 -0.9612092129825311

bs f8 [121]
00000000: d1a5 2fb1 70b8 cabf ff84 9129 9272 cbbf
00000010: 9882 f8fe 682a 8cbf a33a fc46 1e92 b43f
00000020: 9627 8cec 77ab 943f f133 da47 044a bebf
00000030: a7ab 4c2f 6436 b13f d7bd 9075 ef8c d8bf
00000040: 29a1 0a9a 0935 cfbf 2e8a 9544 7c3d cbbf
00000050: 9469 1d9e 1aac b13f 8b6d 959d 055f a5bf
00000060: 0ab8 f96d c3df b43f bc2c 2cdc 97ed a8bf
00000070: 82a3 ada1 b62d b33f 1b91 fd55 2d1a a73f
00000080: 93a1 d97a 9268 c5bf 428a 0078 f52f b83f
00000090: 057d b49a 7810 c6bf eb67 6fa3 4c3a a8bf
000000a0: 1aad 4b8a 4721 bdbf 671d 1d57 fe5c 9abf
000000b0: 07b9 615f f485 c0bf 4008 3533 51f8 8bbf
000000c0: ec2e d90f d90d d1bf 63c9 cb1e 0a8d c43f
000000d0: 9ada 9346 59d7 92bf 0a3c 91f1 2cd6 843f
000000e0: 1a60 ae3a c44c e0bf 6973 9c1a 3e9f c5bf
000000f0: aa3b 765a 0ea3 aebf d450 1f1d 4978 b2bf
00000100: 9ac3 b066 0e09 a5bf 81a8 a322 c2d7 c1bf
00000110: 11ec ec34 38de cfbf 42ff 25f7 189a da3f
00000120: c0f0 aaa2 7552 bc3f 953f 3112 f5f4 c23f
00000130: dc77 89f8 8ea6 acbf 9e99 0a27 b947 cebf
00000140: daa6 4caf b1da b5bf 901b 7d0e eee3 d0bf
00000150: 21d1 df93 a331 983f e7ff 7267 7456 97bf
00000160: 96c5 4ff8 c3d1 b53f 5a90 1602 4b92 bc3f
00000170: ff6d 16a3 39fb c1bf ada3 cd4d 98a7 c3bf
00000180: 26d2 6e52 e4c7 7f3f 2baf ad63 29fc a0bf
00000190: c3ae ba2b 397e c4bf c663 61cb 1403 d03f
000001a0: b62e 5494 c2e4 d1bf 7399 a8af dd80 e83f
000001b0: ec49 c451 dd1b c0bf 6360 57ec 09ee b73f
000001c0: 09f0 8d7d afc0 cbbf 0281 e8b7 8db8 cbbf
000001d0: 5f8e d505 dff6 bfbf b100 1e15 edf7 c03f
000001e0: 94c4 02fc 3f86 d1bf 3bcd 0287 2c03 ae3f
000001f0: 7486 073d 5413 b83f e0f4 075a 1bf1 c4bf
00000200: 40e7 0e66 2145 b3bf 60ee 23c8 622b c7bf
00000210: 1ccb 45a2 b18d 933f be72 d4b4 8522 ab3f
00000220: 8840 f4b8 a89e 813f 7991 67c9 bb58 cf3f
00000230: f636 2471 74d3 733f 880a 89ed 7ecf d0bf
00000240: 9bd7 d25f 6473 c7bf f475 5a76 db5f b7bf
00000250: 4ecd 5043 de7d b5bf 0084 d8d3 6d62 bfbf
00000260: 0da2 508b 99c6 e7bf 51f0 bb54 9c89 aa3f
00000270: c582 dc36 005d c3bf 784a 555b e28d d0bf
00000280: 7cae 93a8 6c6c c73f fbe4 d629 e830 a2bf
00000290: 96ba 944c 1233 b03f 27c2 ed0e 53cf b53f
000002a0: a18c 90d3 b360 aebf 1993 0e85 24d9 c83f
000002b0: 3921 e9ae 19fd c1bf ae17 955c c92f b2bf
000002c0: 3bc0 805c b46d aebf 7574 f809 ed1d cdbf
000002d0: 64b3 b4ef a6a1 a43f 1559 6031 f1f7 de3f
000002e0: a31c 3394 9514 c1bf 1b9c 6107 f54c 9abf
000002f0: cbbb ee95 40e0 ba3f daae ebd7 84a0 d1bf
00000300: bd24 6267 22b2 893f f3ff 04dd 1f14 c3bf
00000310: d4b0 5e0a cff4 89bf c48d f291 9d49 a7bf
00000320: 5114 25fe c136 abbf ec17 16a8 16f8 a53f
00000330: b71a c521 9ccc c1bf b85b e198 df64 c8bf
00000340: 0a90 1c59 350a b3bf 986a 0b19 af0b bcbf
00000350: f5d6 5002 abb0 a3bf 1a8c f33e 51d7 b13f
00000360: 3397 376c d05f d7bf 4c70 65f6 2e23 d4bf
00000370: ec85 0283 0d54 b2bf 1145 5f34 765a b63f
00000380: 9ece 3c93 4ccc d0bf 937a 0e34 4eb8 c8bf
00000390: a622 3dea f121 743f af98 d8e0 a3ef d93f
000003a0: b612 e709 a849 d5bf 01b6 b012 15e4 dd3f
000003b0: bff5 608b 4f98 87bf cd9d e8b1 1ab2 cfbf
000003c0: 3ccf 2bcc c5cc c4bf
-0.20875366832414824 -0.21443392781933565 -0.013752765923585472 0.0803545878700143 0.020185350239479392 -0.11831690553863418 0.06723619608662422 -0.38360201340671324
-0.2438060762554042 -0.21281388615450808 0.06903234825350629 -0.04174058483723816 0.08153935847232688 -0.04868769228604594 0.07491628119681873 0.04512159037293114
-0.16725378988782022 0.0944817941640759 -0.17237765840489075 -0.047319788885672974 -0.11378905416829746 -0.025745367114067188 -0.12908796937285436 -0.01365722119829027
-0.26647020862286186 0.16055418494904491 -0.01839961522360998 0.010174132463502534 -0.5093709131351745 -0.168922198289603 -0.059837769072252314 -0.07214791260713876
-0.041084718738040496 -0.13939692202922419 -0.24896910270931064 0.415655366283307 0.11063323232059741 0.14810050380992537 -0.055958240355479666 -0.2365638199455135
-0.08536825685282726 -0.26391173758423125 0.02362685766270645 -0.022790736021079196 0.08523201763434538 0.11160725403766616 -0.14047928298246856 -0.15355209158886166
0.00775899112970938 -0.03317384092119221 -0.16010203013626353 0.2501880632531165 -0.27958740697134077 0.7657307082015862 -0.12585035793797716 0.09347593326617835
-0.21681779509151536 -0.21656962852376443 -0.1248607053035413 0.13256610423196016 -0.2738189660113417 0.05861796520312131 0.09404493799186203 -0.1636079969029316
-0.07527359716087023 -0.18101153156736682 0.019095206765494685 0.052997759174308254 0.008603399414397708 0.2448954327984543 0.004840330935861328 -0.26266453930671974
-0.18320898703467212 -0.09130641593443284 -0.08395184653709473 -0.12259565755859114 -0.7429931374545632 0.051831136077425406 -0.15127566031244136 -0.2586599246907677
0.18299635154049898 -0.035529379947044824 0.06327928895619048 0.08519476999732288 -0.05933153112007373 0.19412666794701108 -0.14053650894698835 -0.07104166517555541
-0.059430729190694774 -0.22747576701013697 0.04029580761048271 0.48388318845663153 -0.13344068275748552 -0.025684193206327515 0.10498431835615844 -0.27542229734420476
0.012546795635233083 -0.14905164997071516 -0.012673966888393208 -0.04548351675591847 -0.05315214373926181 0.04290839006266353 -0.13905669831202314 -0.1905784126745098
-0.07437451768470296 -0.10955328332367242 -0.03845724490422057 0.06969173228166917 -0.3652230316932787 -0.3146474271977737 -0.07159504364474117 0.08731783655754934
-0.2624694288126451 -0.1931245569403087 0.004915184956026641 0.40525147397637346 -0.33262062995008124 0.4670460398218382 -0.01152097839451016 -0.24762281119295296
-0.16249916524213315

bo f8 [121]
00000000: 415e 0d0b 9e9e e4bf f8d3 7b4a fa45 c0bf
00000010: 2ae0 2265 b451 cfbf e532 1cb4 7f60 c4bf
00000020: 43b9 33be 2090 813f 9d98 5849 3fba d6bf
00000030: 67e7 5df1 e9e0 d9bf 41f9 2a01 b64f b7bf
00000040: 3de2 9df3 9f46 d3bf 2c35 cf03 1bc2 e2bf
00000050: bc90 fcd6 4a7c d5bf bf8e 9171 f828 b7bf
00000060: a59d 9a84 60ef d0bf 119a 85ea c5fa d7bf
00000070: 1d63 18fa ef03 b5bf ae66 f31e 5513 d1bf
00000080: f3b4 22b5 c92d debf b649 a356 b207 f03f
00000090: d87b cf38 d2f6 e1bf fb08 eae8 4063 d3bf
000000a0: e4b3 bf30 2bfb c1bf d6b1 b939 3abb d3bf
000000b0: 2ee6 936f e460 cdbf 6ab8 9ed2 4ce1 eb3f
000000c0: 124c 3de7 e759 de3f 6fb2 531f f9dc ec3f
000000d0: f97d e681 8b5a 873f 3ffe 889c fcc6 d9bf
000000e0: 9531 3ccd 5a22 0040 394e 8228 7eb3 eb3f
000000f0: 6274 5c3a 00ef e5bf 7549 4615 ddd1 d7bf
00000100: 3dc6 70a0 a633 d7bf 7fc7 92bd 4485 ccbf
00000110: f988 498b 745c dfbf 216f 492d 21f1 fc3f
00000120: 0731 7625 f915 c2bf 0fe4 405c c6d2 c2bf
00000130: 12a1 8a76 4ddd ddbf e1f4 fd2b 77ef cabf
00000140: c86d 7a58 8c6f d2bf 86df cd91 bd01 a4bf
00000150: 0960 b717 9e52 d0bf 5989 8134 c5f0 d7bf
00000160: 2df2 b089 a3b4 d1bf 7abf a320 7507 dbbf
00000170: 6a14 790d d935 d3bf 026c 7796 9ce8 bf3f
00000180: 9c88 6a6c b249 d6bf beab 3371 b03d c8bf
00000190: c740 97fa f708 b53f 254f fbd1 940d ff3f
000001a0: 228d 4102 1840 e5bf 8f1d acf8 d6f1 0b40
000001b0: 1dcb 46d0 4421 c6bf 09ba 5727 5300 d1bf
000001c0: 88e9 b752 49f1 c0bf d2bc 47f5 f014 813f
000001d0: e54e c358 2242 a0bf a5bc 0f95 ba43 d0bf
000001e0: c9cb b394 bd90 e5bf 4039 cbb9 bd87 b3bf
000001f0: ad16 e854 65ff d6bf 42fa 4757 a642 d7bf
00000200: 0370 de63 e194 d1bf e49f dfce 4e7a e4bf
00000210: 0580 5836 19ab d5bf 20fe 83b9 545a d7bf
00000220: 7ff2 12e6 16b0 d8bf e01b b1b0 f1f7 a7bf
00000230: e791 4ebf 09a4 d2bf 251b 3935 7931 c73f
00000240: 3d3a 44fa a12d b1bf 86b9 be1c c761 cfbf
00000250: 62e3 bacb 4237 d3bf 5a22 8aa0 506c c33f
00000260: f30e 068c b4c3 0040 1059 4146 dc1a d8bf
00000270: b354 db4c 1ee8 a9bf 4e95 b7fd 9ffd e0bf
00000280: f8bb 78b5 29e8 d0bf 1386 6bd5 adad d3bf
00000290: 2a5d bebf 41d3 d6bf f5d0 88a3 ad68 d8bf
000002a0: 06e1 d2b1 ad10 d8bf 928e c213 7aef ca3f
000002b0: 379f 545b fd1f e0bf 04f8 315f 4616 d3bf
000002c0: 64ab 0d5b 5937 d3bf e31c 67bb a0ec e3bf
000002d0: cf5b bb23 9a1f c4bf 92a4 2f7f 4648 ef3f
000002e0: c06f 21fc 08dd b23f 2e02 61ff dc0e d6bf
000002f0: bb1b 65a0 1d9d d63f ec32 11b3 e679 c4bf
00000300: f6c0 19ee 2440 d3bf c56f 670d 446a e1bf
00000310: ddfa 79e6 2020 d0bf 0221 8709 437a d2bf
00000320: 75c7 1e82 82c7 d9bf 7fef 3eb3 09a4 ab3f
00000330: 4a00 07ba c16d d7bf cf4b 0ab1 c197 dabf
00000340: 3069 dffb 3dd7 d1bf 8402 5538 d73a cd3f
00000350: fc09 2514 24b0 d7bf 3fc8 28cf 5e4a d7bf
00000360: df35 93d3 5fb0 d53f 580b 29d4 4621 c7bf
00000370: 73d4 012c 7c38 d4bf 00b5 c101 e880 d83f
00000380: b952 e5a2 1a4f c53f 84d1 75a9 db1d d8bf
00000390: c64e da20 f902 d1bf 2acf 11c4 42ce fd3f
000003a0: cf5d 0ca7 e965 dfbf d397 8f37 d462 e93f
000003b0: 3a43 3fe3 62e5 dd3f 0432 7357 b229 9e3f
000003c0: 8e00 383b 1167 81bf
-0.644362470232359 -0.12713554989718978 -0.24468092859547258 -0.159194910950098 0.00857568340731219 -0.35511762774184225 -0.4043526513192916 -0.09106004265320157
-0.3011855963773405 -0.5861945223238414 -0.33571120257171194 -0.0904689099566509 -0.2646104140244126 -0.37468097593810606 -0.08209133010712973 -0.2668049623731389
-0.47154467286129814 1.0018790611544381 -0.5613795384959941 -0.30293295617606447 -0.14047756080927265 -0.3083024562572779 -0.22951941917544744 0.8712524522468474
0.47423741895653493 0.9019742595533681 0.011403169538254142 -0.4027701882041334 2.016774752997842 0.8656607428733373 -0.6854249133936146 -0.3721840579757079
-0.36252751987476356 -0.2228170323992877 -0.4900180206515326 1.8088695305841116 -0.14129556969817988 -0.14705733780445526 -0.46663223816223465 -0.21043290756271119
-0.2880583633466043 -0.039075779007304454 -0.2550425750355321 -0.374070454860108 -0.27665031858831207 -0.42233017146553886 -0.30016161266059405 0.1246431224202951
-0.3482481058837352 -0.18938260581430016 0.08216810100498427 1.94081575416653 -0.6640739482940357 3.493085806610629 -0.17289028329613468 -0.2656448253827937
-0.13236347712502217 0.008340723500593592 -0.03175456365138788 -0.254133840148777 -0.6739185242025708 -0.07628999505979994 -0.35933812419566885 -0.3634429790835477
-0.2747119403154558 -0.6399301567553235 -0.33856802279660797 -0.3648883639980074 -0.3857476469818621 -0.04681353837855062 -0.2912620895606594 0.18119731043608414
-0.0671025501253348 -0.24517144111218786 -0.3002478589583487 0.15174300993773465 2.0955592097615123 -0.37663943158021684 -0.050599047548226216 -0.5309600787556208
-0.2641701004203578 -0.307475527208312 -0.35664409375154327 -0.3813890549674988 -0.3760179745254536 0.21043325390666162 -0.5039049896049396 -0.2982345513954672
-0.30025323764737366 -0.6226352367602 -0.15721441979141423 0.9775726780036555 0.07368522792370324 -0.3446571821150738 0.3533395830494858 -0.15997012847437675
-0.300790054817312 -0.5442219030187451 -0.25196096904248383 -0.2887122719807992 -0.4028021116929417 0.05398588479098886 -0.36607402006848544 -0.4155124882610694
-0.2787623367018055 0.22835817576016748 -0.37012578933004625 -0.3639142058410733 0.33889003430962633 -0.18070302352324563 -0.31594757363865894 0.3828678147463762
0.16647656396766822 -0.37682239102220927 -0.2658064671352175 1.8628566416709398 -0.49059525788603947 0.7933140835927993 0.4671256274423744 0.029455935084842025
-0.008497366542542541

Eh.weight f8 [121, 300]
00000000: 99ae 5292 f307 a1bf d2a6 7752 ffc8 903f
00000010: 59d7 6826 903a a3bf 60f0 5248 b695 743f
00000020: e404 1eff a8a5 713f f54f 5a10 c89e b3bf
00000030: 0412 d942 deaa 83bf 8578 15e3 c8ea 82bf
00000040: 74d9 9c29 ebcd 843f daa4 692f 9efe abbf
00000050: be4e 727b 2c46 aebf c01b e0a6 53ca 973f
00000060: 01a4 0eb1 0871 a1bf 5ecb 9a41 7f37 a8bf
00000070: 9d35 26d6 4c41 62bf 8833 9c4f 6e02 46bf
00000080: 32ab def7 e209 90bf eaf2 3d85 8de2 723f
00000090: 493b b623 3cf2 1ebf 7de8 2e85 0e9b 9abf
000000a0: 7030 8546 68d8 903f ace6 43d2 136f 9dbf
000000b0: 905a 1e0e 143f 923f c82f 3145 6e5f af3f
000000c0: 74de 62b0 1837 53bf 3fc7 0c27 d996 853f
000000d0: 4df8 1fc4 0cc4 ab3f 4530 2084 92c0 893f
000000e0: 2eff fd08 1d8d 773f d523 82c4 210c a4bf
000000f0: 4d67 d0a1 4d48 99bf 2f92 f43e f81c ab3f
00000100: 2312 4af2 2a46 92bf 851a 6e23 e2b9 9bbf
00000110: a52b 07b8 83e2 8c3f de75 e6eb d7af 993f
00000120: b0ec 0432 20d3 5e3f ee9f 89f9 479f 913f
00000130: eb78 ef31 2328 783f 6a44 a844 947f 903f
00000140: d544 a9a0 6b73 923f 4c57 30a2 6ada 9abf
00000150: b754 7c42 e963 9abf d5fe 7b37 22a7 743f
00000160: 06d5 2573 0511 8e3f a3d8 c676 a692 953f
00000170: a170 66aa e9a9 b0bf 1e6e 9851 2a9b 65bf
00000180: 1f49 2c7b ee11 86bf a618 7544 1507 91bf
00000190: 5858 bdf8 dc7b 273f 37e3 583a dc70 643f
000001a0: f088 4817 8b78 673f f2e6 6e68 b7fe 763f
000001b0: 1274 7b25 f9dc b13f 3f3d 65cd b89f 963f
000001c0: 314f 2a5d a1d0 783f 622a fdf0 e0d0 533f
000001d0: 9258 2837 faa1 47bf cfec 0f59 51ee 9b3f
000001e0: f04d 2c7f 1dac 5ebf bd8a f0bc dfb8 973f
000001f0: 4836 467a e1ad 82bf dda1 8d73 4fa1 983f
00000200: 0753 2f0b 7367 693f efd5 b8de 3b4d 933f
00000210: 266e d124 6610 78bf 0638 274e bd2a 903f
00000220: a850 c916 b323 a33f 91e4 7f44 8fe1 893f
00000230: 1677 72ab 6880 9b3f d771 3147 731f 843f
00000240: e8ce d073 4e86 8dbf 8448 e8f2 0bf2 8ebf
00000250: 4bfe 33cb de5f 5fbf 1dfa 1cda e753 7abf
00000260: d942 b5e6 8dfd 8d3f 10c8 f81f d0c9 833f
00000270: 569f a58d b9c1 923f a831 dad8 4691 67bf
00000280: 7bce 03fb 706f 6dbf 353e 040d a5d2 863f
00000290: f8a7 4889 5d22 9d3f 229b 26e8 bcbe 703f
000002a0: 8313 2492 65ef 69bf 5227 51d6 1546 7f3f
000002b0: 65d1 108f 7fd8 81bf 66cf 07eb f0d7 a43f
000002c0: 8447 2ec0 0c9a 99bf ea73 f75e ee84 a2bf
000002d0: cb9b 8185 5dfc 87bf f94c e267 e774 953f
000002e0: 2aeb 88d2 a3ed 873f e5a6 507a 0bfc 643f
000002f0: f33b d801 2203 733f 6c21 385f 6c1d a43f
00000300: b029 965d b079 a23f 25cc fdb4 2030 903f
00000310: 250e 0322 f78d 743f 72d8 f082 04c7 913f
00000320: e853 715b 1814 9a3f b7ae e1b4 23c3 b03f
00000330: a243 4675 a17b 96bf bafd 6ac6 8fcb 803f
00000340: 3f59 67a5 5b1d 85bf f508 8550 85c2 933f
00000350: 9988 34ee 7bb5 a33f 5c24 0282 e543 7c3f
00000360: f927 2c2a 1f68 af3f 2f64 94b0 d83d a93f
00000370: 8b56 0e59 3fa0 7bbf 31aa 1924 9701 833f
00000380: 8afa 62c7 d9ad 863f 03b8 f3ac 6a84 78bf
00000390: 63dd 47db db75 72bf 6202 284b 9700 973f
000003a0: d574 d86a a2b6 abbf 1621 71a1 e02c 9ebf
000003b0: 1e30 fbe8 8546 85bf e0d0 8ad6 7837 84bf
000003c0: 543d 27fd 4cee 8d3f edfa 96db 0594 9ebf
000003d0: 9a86 9c38 582e 7a3f 76dc 52f3 55ba 8d3f
000003e0: da76 4836 143f 86bf 55d6 0051 3700 9f3f
000003f0: 50f6 7078 79c6 843f c35b ebaf ee01 91bf
00000400: 8ecd 3e1e 29b5 8f3f 6d30 44a2 98f7 c2bf
00000410: 8f51 4d20 e8c2 88bf 0018 a18e 37ce 853f
00000420: ffd7 6d34 a0ae 85bf 4420 87c5 a2c3 abbf
00000430: cf71 f206 c10b 99bf bb73 f510 50a2 af3f
00000440: d817 8c68 4339 9e3f 9402 95ed 1e2a 64bf
00000450: a844 d141 3f50 713f d499 ec7d 828d 6c3f
00000460: fd5e 2de9 a2c8 7e3f c5bd c3bc 2bf6 963f
00000470: 634a 8282 5a84 82bf 93be 1310 05f7 6d3f
00000480: 1df8 896b 7306 88bf efda 4ce0 6881 7fbf
00000490: b854 22ac b0ba 953f 4e66 df11 cee0 873f
000004a0: b3ce 9203 6de6 93bf 4bbc b0f9 735c 91bf
000004b0: 40e2 9536 43f7 9bbf d264 22f8 c3f0 90bf
000004c0: b0fb 1fd3 28fb a53f 6dad ac2d bc4c a73f
000004d0: 8bc6 8e5a ff67 903f a515 ded3 d5ba 96bf
000004e0: 4f1a bc35 179b 9c3f 82ac d6f6 fc16 84bf
000004f0: 4449 c7df 9369 813f 2056 2349 697a 92bf
00000500: f59c 713d afc1 71bf ad73 1c8f 8b18 94bf
00000510: ee97 f613 9839 7dbf 0727 0ae7 3136 813f
00000520: a48b dd0a 4e59 87bf a842 a273 e8e5 733f
00000530: 5434 ba13 d0ca 8c3f 6df4 2fef 2d04 8e3f
00000540: 861a 22c5 eeaf 9e3f e73d 5afd 3692 903f
00000550: c933 5560 983c 8b3f 8f0d f60d bb50 77bf
00000560: fe95 2c13 0575 923f 01a8 d532 4679 313f
00000570: 5148 a380 b4f4 95bf d3d3 1754 066c a63f
00000580: cd23 819f bf10 8a3f 0f64 b1e1 d1d5 7a3f
00000590: 3e2b 8659 c4dd 3d3f 19a8 d961 c5fa a6bf
000005a0: 6843 9f7e ae88 933f ada3 60da 642b 943f
000005b0: 4536 7328 dcb1 a4bf ef1a 718c 5bfa 65bf
000005c0: 1732 0fdf 4dac 86bf 94b1 635e 7072 70bf
000005d0: 5446 0a73 5383 973f 68a4 5ce4 3677 833f
000005e0: c6a3 2d6f 82d6 a6bf 55b6 ad8f ac79 a1bf
000005f0: a73f 3483 ea6a 8bbf eea1 0839 7737 a7bf
00000600: e1a8 93b4 b55c a53f ae16 b7af 1295 8c3f
00000610: 1040 ecfd 3884 5ebf dc26 4580 1147 adbf
00000620: 8c8e 0065 b5b0 753f cc8d 6f78 9474 933f
00000630: bce6 8af1 8a02 83bf b0fa 6502 b92c 713f
00000640: d698 5423 1ae7 95bf ccbd b9cd 674f 9dbf
00000650: 52ff d2c8 d2a6 99bf e072 8a3a a4b5 8a3f
00000660: ce97 584f 8b48 933f bf7a 62f6 52d0 aa3f
00000670: c9ed 3cef 0d23 9cbf 7fe2 fd19 5c9e 89bf
00000680: f8df 06eb be62 a83f 56a9 39ae 4f7b 91bf
00000690: 527f e6b6 0165 9d3f 45f8 b311 51d6 a1bf
000006a0: 09e5 a7ac a6ef 55bf 879c adc8 c24c a8bf
000006b0: 0831 4520 8df9 acbf 405a fe5d cecc 97bf
000006c0: 7fd6 1547 3c24 953f 60b4 7262 a31d 813f
000006d0: 9ea0 6bcd 53ff 393f 04b2 9f40 e23d 9d3f
000006e0: 2620 9334 fac8 803f f4a3 0417 b911 953f
000006f0: b05d 8763 0be6 9bbf c016 ab8a 6347 893f
00000700: 9748 ef13 7d27 9dbf 89a4 9b0e fbe2 993f
00000710: 232e 35bb c2fe 79bf 41ae 4daa ebe4 bc3f
00000720: 5316 2aad 50d6 7ebf 5a23 6eb8 1a5c 933f
00000730: 2b57 2cbd a35f 183f eff3 97a1 912d abbf
00000740: 5840 c7fc 3deb 94bf caa4 6b2e 413b 9bbf
00000750: 7de7 bf8a 2b2d a53f d337 2a64 96e8 803f
00000760: b129 b802 b62b 98bf ec1e 8eaf 9aeb 5bbf
00000770: ba94 8af3 b963 64bf 6cb8 7ce3 fa1d 853f
00000780: 6818 17b2 4bf3 6abf 3de6 87c8 0636 9f3f
00000790: 1497 2ada 653f 98bf 5a0e f07b 7607 6fbf
000007a0: 25aa 4112 e735 57bf c65a b9a8 43e8 7f3f
000007b0: 36da 738e 62a5 95bf c10a c494 9f5f ad3f
000007c0: a826 21b2 9d76 a4bf ce18 8bf5 c155 75bf
000007d0: 7ab4 bc21 325d 953f bfd3 1322 c923 80bf
000007e0: f57f 67b1 8d9f 953f a9c8 fad4 f00d 913f
000007f0: 8f9d 4665 6c57 8e3f b5e8 fcb2 8866 90bf
-0.03326378976029538 0.01639174404946326 -0.037556175888694816 0.005025589028431282 0.004308376448421945 -0.07664156340825896 -0.009603248992001497 -0.009236878805207968
0.010158383567255604 -0.05467695549743619 -0.059129133290438216 0.0232327528574634 -0.03406550561278011 -0.04729840923155025 -0.0022284031594554513 -0.0006716765048807452
-0.015662714365741688 0.004610588850366007 -0.00011805049955724874 -0.02598211944471317 0.016450528434959144 -0.028744039257594764 0.01781874977276715 0.0612749537909561
-0.0011728039840316591 0.01054162645741352 0.05423011678793497 0.012574333817632186 0.005749810617885305 -0.03915505908759768 -0.024689877511355807 0.05295539635179513
-0.017845793760459593 -0.027076276218873225 0.014103917172993816 0.025084852002342 0.00188139099198174 0.017209171872678945 0.005897653084472969 0.016111675920971548
0.01801841896150765 -0.026223817967625337 -0.02577175586983024 0.005042203578113654 0.014680903030902314 0.021067238807255816 -0.06509266290817319 -0.002637465146802644
-0.01077638924974572 -0.01662858228999 0.00017916748435692592 0.0024952222181834588 0.0028650967235687094 0.005614010274195046 0.0697780338773131 0.02209366563448367
0.006058340385283676 0.0012094685261724515 -0.0007212135081455953 0.027276297627378206 -0.001872090154113045 0.023166175753554386 -0.00912071375276037 0.024052850177584396
0.0031010863253676554 0.018849311322091052 -0.005875014304446624 0.01578803815373677 0.03738174107698572 0.012637252119008376 0.026857028450300545 0.009825611696379006
-0.014416325482762685 -0.015110104895061711 -0.0019149471016247806 -0.006427674934285335 0.014643772700453738 0.009662271476461398 0.01831712653202485 -0.0028768905384081896
-0.003593178429690811 0.011143960437521286 0.028451406005991914 0.004088151852932128 -0.0031659110837857786 0.007635197926967612 -0.008713718942183044 0.04070999974274407
-0.02500171587923418 -0.036170434086422024 -0.011711817395008503 0.02095376559789217 0.0116837309479841 0.0025615905929229237 0.0046416595846627716 0.039286982177204915
0.03608466284193257 0.015808592840994024 0.00501820122025579 0.017360754482261993 0.025467281895846045 0.06547759214452752 -0.02195598867689664 0.00820076298020821
-0.010309902177067285 0.01929672531083156 0.03849398882654604 0.0069006886625483065 0.061341260812767424 0.049299975924619203 -0.006744620754849283 0.009280377186958596
0.011073781392380928 -0.005985657407320491 -0.00450693017454937 0.022463191950011903 -0.05412776521937138 -0.02946806893695094 -0.010388418362161696 -0.009871429488477579
0.014614678836464869 -0.029861537482925127 0.006391853917905666 0.01451556347670489 -0.010862501055324204 0.03027426177887656 0.010144185054851068 -0.016608933913484735
0.015482255206598319 -0.14818103717005063 -0.012090505109576792 0.01064723400135037 -0.010586978530891853 -0.054226957905087164 -0.024458900498403765 0.061785223074117344
0.02951531720739084 -0.0024614910186360837 0.004226920221371312 0.003485445849395344 0.0075155605034848945 0.022423442264821753 -0.009041506870095256 0.0036578272707784103
-0.011731054038360661 -0.00769177405600517 0.021219978815299995 0.011659250183515681 -0.019433692305667005 -0.016954242815867365 -0.02731041927970268 -0.016543447513502958
0.04293181969841642 0.04550731713819798 0.016021718885616692 -0.022197094971053172 0.02793537393065498 -0.009809471400180184 0.00850215460460347 -0.018045086945525424
-0.004335102587993624 -0.01962488232594566 -0.007135004095664128 0.00840414987876016 -0.011400804239831981 0.00485792924349996 0.014058709718734054 0.014656409131925419
0.029968004972511973 0.01618276521054254 0.013299169959873585 -0.005692225152759702 0.018024520201967313 0.00026662792045917266 -0.02144128832953413 0.043792913213031824
0.012727257781209556 0.006551570749331339 0.0004557232255357097 -0.04488198108158787 0.019076086500550288 0.019696784809784585 -0.04041946405196176 -0.0026828563746080706
-0.011070831651431452 -0.0040153874781307 0.02296190633439317 0.009504727214862466 -0.044605327674453174 -0.03413142446411813 -0.013387519959479578 -0.045345044815181854
0.04172294453913295 0.0139562091707249 -0.0018625790177715408 -0.05718283358380713 0.0052954755520066114 0.018999404764952918 -0.00928219365720239 0.00419304150852777
-0.02138939705505368 -0.028623220378390532 -0.025050443179451883 0.013041766201518923 0.01883142158307987 0.05237063653588824 -0.02747747204487697 -0.012509078543858408
0.047628370466043124 -0.017071957596649888 0.028705622471192634 -0.034838231478702165 -0.0013388755493209412 -0.04746063899693192 -0.05659142512249288 -0.02324221085253897
0.020646039808943414 0.008357311670204648 0.0003966884227524311 0.028556380457233757 0.008195833901837157 0.020575420408167802 -0.02724473757720397 0.012343194646187938
-0.028470949498860944 0.025279925123787215 -0.006346474331916182 0.1128680506496318 -0.0075286055968085295 0.01890603781388065 9.297787555015136e-05 -0.05308203790261944
-0.02042862754188976 -0.026593225916177222 0.04136024540635128 0.008256125385084722 -0.023604244152048263 -0.001704121647181307 -0.002488959490011125 0.010311088626249375
-0.003289840548606416 0.030479532231743035 -0.02367934364396891 -0.0037877382415006213 -0.001416659980373888 0.0077898638661141936 -0.021138706154454755 0.05737017336834561
-0.03996746825630498 -0.005208737996048108 0.020863326367522174 -0.007880755760632739 0.021116460755251826 0.016654742240185403 0.01481518444127408 -0.016016136097484607

rvh.weight f8 [12, 300]
00000000: 14f7 7527 c0c1 a5bf e757 7e96 7eab 8bbf
00000010: 7403 2c4f a700 a9bf 3ad3 f102 40c3 68bf
00000020: d497 1e90 4af7 99bf 47ce eee3 fe16 bfbf
00000030: 1c92 5ada b68b 713f 715e d6a9 965d 803f
00000040: 9c26 0da6 bee4 363f ae01 66d3 b44f afbf
00000050: 97eb 5f69 c5a1 b33f 7787 340d cdff a23f
00000060: b8f6 faee 7262 7d3f 5bea 73ab b1e0 443f
00000070: e8e0 ae35 dcf6 a53f a9f1 9886 3473 a1bf
00000080: 393b ad5a ea01 993f 3580 64d9 e0bf 803f
00000090: 7563 d50f 3401 a73f d975 6c22 d1cd 69bf
000000a0: 17fa 8897 6f86 603f 5f81 2760 9b3b a93f
000000b0: 52c9 8fcf db60 a03f e06c 2123 2525 aebf
000000c0: 5d77 dd3c b8f7 993f 6139 0222 b227 9a3f
000000d0: 148a 68bf fe60 4a3f 1b9b 9602 242b a7bf
000000e0: 062f 6a06 58cc 853f e74e f0fc 53f6 a33f
000000f0: 45dc 2916 630e 6f3f 33b0 86ad e389 b73f
00000100: dd80 81f3 762b b63f 2892 6185 1401 993f
00000110: 007d a948 3693 a5bf f2d7 cba4 bc5c 963f
00000120: 7d0d 09b7 b43a b23f 0f23 ef71 093e 8e3f
00000130: b51d 4359 e013 a7bf e392 c3b6 8a2f b43f
00000140: 4105 6dae 33e7 a13f b06e 8887 c082 a1bf
00000150: f8dd 7b41 5eb1 693f 037d 56b6 1c12 4d3f
00000160: 9ad4 1703 5eaf 833f aa24 fb70 778e 8ebf
00000170: d107 0632 1ace aebf baaa 30e3 f8cf 953f
00000180: 0d5f df63 a2ca 8b3f 4457 5227 33ae 7c3f
00000190: ac7f a22b 0986 9e3f 0eec 2082 285d 9e3f
000001a0: 6b49 25cc fa16 943f f9fc f519 5500 a2bf
000001b0: 1d72 8e6c f1b1 b83f bbee d62c 1e8d a5bf
000001c0: cd92 60f3 b47b b5bf 9115 6f77 82ea 9bbf
000001d0: 54a7 77d9 8f7a 6bbf 403b 4ab1 8542 a83f
000001e0: 5146 5785 07ad 9f3f 6559 4b62 7a84 8e3f
000001f0: a7f7 45bf cd83 97bf 7c08 d471 0d1b 973f
00000200: f251 4188 5de6 723f 3caa b13a 63cf a23f
00000210: b0d0 de8e f868 933f 6359 8667 db44 9d3f
00000220: d413 ef4a c685 7a3f ac2a a5d0 cf56 97bf
00000230: 4a0e 2d8d 6bfc 533f 53dc b180 5816 823f
00000240: ea0f fdb8 9a70 8bbf 6dfa ca5f af88 b4bf
00000250: f41e d1a9 1663 893f 7027 a0ca 2bb5 623f
00000260: e2e1 f4ac f6ee 733f 9ecd f085 c28b 723f
00000270: 0e92 fe49 cc11 aabf 885e d4ba 3cd0 993f
00000280: 9aa5 9c83 e4cc bcbf e9cb b8f5 acda 943f
00000290: 4496 b269 5b1f a23f 1452 3eac 0140 96bf
000002a0: d893 a1e5 dad2 82bf 1f58 39fe 77e4 863f
000002b0: 133a 3994 3fc0 b33f 42b9 fa2c ad40 a53f
000002c0: 524b 0401 e9fd 8bbf 55f8 cd7c ddeb 72bf
000002d0: 9d4c 59b2 6fbd a5bf 9014 d4c4 bdf0 b63f
000002e0: caf5 fd0f 7aa6 94bf 846b f1b5 8115 afbf
000002f0: f270 8447 6fa9 a9bf 7ca4 99de 0d66 be3f
00000300: d7a4 97c2 f382 b03f c7a2 d861 5a29 85bf
00000310: 66a7 6e45 a73d 8d3f 6258 5622 a23e 6abf
00000320: 6354 bf49 3ba5 9c3f 3c26 5774 ee95 8d3f
00000330: 2414 f181 9b32 8dbf 2f37 c97c c5a7 98bf
00000340: 20b2 6d21 b589 603f f54c 01b4 1da5 82bf
00000350: 667b 3f84 4877 a63f c2fe cde6 81a5 923f
00000360: 1458 4174 a383 90bf d054 166f dba1 aa3f
00000370: c0e2 2719 5d25 a33f e359 792a db5a a5bf
00000380: d3b5 df63 41ba b13f 95b1 cc74 5f0a 90bf
00000390: fcbf 0870 20dd a43f 5d9a 5b15 55c1 a2bf
000003a0: ab11 19ae c42f a2bf 17d1 a161 ed40 b93f
000003b0: e5fc 2840 88b5 b0bf 86e3 6370 da0c a1bf
000003c0: e210 0d28 7aec 963f 9e81 8f3d 02dc 9cbf
000003d0: 9d56 fe22 b734 a8bf 4450 a232 e15e 8cbf
000003e0: 158d 9e6a 5a4e 92bf 966e 1e84 2607 b13f
000003f0: 530a b078 a17e 923f 5652 d587 038c a6bf
00000400: c0b6 58bf a0c7 a53f 7788 c65e 7237 a13f
00000410: 3aa8 236c 209f 88bf 6770 4bbf e9b8 9b3f
00000420: 4e29 7d5b a903 b0bf 11c4 d56f 3326 b1bf
00000430: a82f 8c77 b25e a9bf 17b0 bb36 2f9f 24bf
00000440: d1cf 2d30 0f7a a03f 2981 8d7b b3d6 9bbf
00000450: 24a0 e2b0 ba6f a83f dbaa 6d03 031a 9fbf
00000460: b042 e3fc 6f81 ab3f 4f2d 7995 b75b 4dbf
00000470: ca3c f762 33f7 abbf f1e8 a5f3 c75d 823f
00000480: e387 3dac a46d bdbf 7087 4a9d 47bb 92bf
00000490: 685e b105 7c19 993f dfb3 5c4d 2ef6 923f
000004a0: 1e61 6172 91f4 823f 7865 5bae 658c 9dbf
000004b0: b9d7 a763 005b bdbf e143 36d3 60b0 b3bf
000004c0: 109a 1c63 1056 82bf 5699 690b 52ee b53f
000004d0: f974 d607 be05 963f 65c6 a0f5 9c04 70bf
000004e0: 1c8b 9f19 8a59 a13f 1e31 16d1 c030 afbf
000004f0: 2472 8f26 a5ab 573f 3f4f 9d54 1f08 8abf
00000500: d0d7 b691 eceb 603f 46ce c1ab c39b 743f
00000510: 40be 4b6b 7f9e 9dbf 8685 bb6d 098d 8dbf
00000520: 5663 656f 6805 8b3f 45a6 7569 4c8d 9ebf
00000530: 37b3 903f e75b a03f 730e e994 6aa0 983f
00000540: 7019 c5a4 8e3c 9cbf d495 661a 6eca b23f
00000550: 10be aee0 4f33 993f 404b c720 e862 903f
00000560: 5a7d a4fd fcad 9ebf aeec 0fd3 caa3 b0bf
00000570: 465d 5fee b80b a33f da3b 13a2 2842 8e3f
00000580: c8c5 a561 25aa a0bf 2bac 3f0b 6f63 b0bf
00000590: 2262 f16a b408 ad3f 106e ef77 c29a 9cbf
000005a0: 742e 22a9 e348 a03f 8895 a23d 2f44 a83f
000005b0: cf6a 3118 f161 c5bf 1990 c82a b653 a8bf
000005c0: 522b 6644 2b76 a0bf 7994 8eab b559 96bf
000005d0: 30c1 d4ac 1965 79bf c32d d5ad aaed b03f
000005e0: b664 3f28 2112 86bf c933 2b2f 29b5 973f
000005f0: 3c90 095c 8a9f a4bf 8f53 7753 c758 98bf
00000600: 1fcb cc2f ff8a adbf 7c93 774b b5d9 ae3f
00000610: 3158 20fe 2c06 853f 1230 18c5 910a a8bf
00000620: cc78 fc58 e1c3 94bf 7c6f c199 9403 7e3f
00000630: 2450 1944 1509 9fbf d93c 17be 90ac a83f
00000640: 85bb 7966 9275 8ebf a6dc 6a07 89b0 a2bf
00000650: d543 d0c4 5dcf 8f3f e440 dd97 aa98 ab3f
00000660: 8c25 93ab c3af a23f 046e e639 3b47 a9bf
00000670: a357 867c f9d2 a1bf b26f 2f6f 72cc 87bf
00000680: fbbf f118 e623 a2bf fa54 8856 6281 4bbf
00000690: 3fb5 5d8c 6d01 963f 5c37 a9fc d335 b0bf
000006a0: 0e97 31bc 4d01 af3f a390 34e6 51ec 8fbf
000006b0: f249 dd25 2617 973f 8dff a4d2 b6dd a4bf
000006c0: 3c8c 4f72 c1f1 a1bf 78d9 af59 0e47 b03f
000006d0: 1d1a 7abe c0a6 a0bf 5f39 df15 8501 a23f
000006e0: d322 6506 b56a 9abf 37e3 03a3 8207 bd3f
000006f0: 2c6e 3159 99b0 973f 8ba0 f219 af14 80bf
00000700: d3dd dcdf c5ef 84bf 74a9 d9a9 7596 a83f
00000710: 0153 1a21 d3f2 a63f a969 34fc f1f8 903f
00000720: 38eb f806 0942 a73f 59f5 ee3f 4667 a5bf
00000730: 6750 9d34 9a53 853f 3725 2432 841b b1bf
00000740: 300d ec28 7bd6 8bbf e919 3f06 66b9 703f
00000750: 8956 2ffc a564 8c3f 59b3 2d53 b81c 573f
00000760: 6d27 494e 1532 8ebf 5d91 f188 c7d5 99bf
00000770: 9382 8e6e 02f2 a63f 15aa 3fad 86a9 b0bf
00000780: 6d62 60ca ce70 923f dd9a d281 851e a43f
00000790: 3732 3f78 4b51 8cbf 7a22 6d2f 16e1 9c3f
000007a0: d4b2 e615 190c a1bf 1077 ff4c 3d2e a63f
000007b0: 3df9 f5f6 e612 aabf 77aa b82f 2ee7 a13f
000007c0: 0863 21f6 06ba acbf 903f 6224 ced2 923f
000007d0: e161 02db 0012 9f3f 4057 91e5 a7da 993f
000007e0: f490 8cc2 04a4 733f 6abf d777 5dbe 633f
000007f0: ff65 f7c3 63cb 983f fb08 5ab0 c45b 54bf
-0.04249382478427158 -0.013510693519304296 -0.04883311120466419 -0.003022789976564158 -0.025357403799396952 -0.12144463600889664 0.004283632535280659 0.007991005952859372
0.0003493276072289249 -0.061154986196018654 0.07668718168853982 0.03710785661884491 0.007173966368723299 0.0006371371772780453 0.0428990188151504 -0.03408207076106191
0.024421369347062714 0.008178478845877727 0.044931055958563094 -0.003149898973233017 0.002017229035373501 0.049282889831149694 0.03198897274696101 -0.05887714437332092
0.025359038081084296 0.02554205257961806 0.0008050197491836241 -0.045251012149767976 0.01064366120888095 0.0389887090933863 0.00379103997084543 0.09194777475812614
0.08660071797340003 0.024418182984293463 -0.042138763780480204 0.021838138159146987 0.07120828121792573 0.014766763486379312 -0.04507351960779308 0.07885043107996696
0.034967055361003314 -0.034200684113071644 0.0031363335546037395 0.0008871689030235666 0.009611830205339001 -0.014920170913131098 -0.06016618595732804 0.02130116354616505
0.013570088074558418 0.00700206739306514 0.029808181083921845 0.029652245466632414 0.019618910512983073 -0.03515878621964847 0.09646519565871654 -0.042092268918592045
-0.08391886655642651 -0.02726177076308073 -0.003354340511340684 0.04738252438720858 0.030933492196544347 0.014901119351105671 -0.02296372871341359 0.022564134666943833
0.004614224777544683 0.036738491930766476 0.01895511981975123 0.02858298129430049 0.0064752336319928334 -0.022792098149958903 0.001219849615794371 0.008831683566525117
-0.013398369570161568 -0.08021064842885446 0.012396027619743212 0.0022836547186714726 0.004866565300567479 0.0045278166353911724 -0.050917037994882106 0.02520842447583374
-0.11250141347104262 0.02036543130652638 0.035395485546626776 -0.02172854055204894 -0.009191236622607166 0.011177957006264503 0.07715222710360363 0.04150906728806315
-0.013667888968972672 -0.004619469819656959 -0.042460909386727176 0.08961092048055463 -0.020166308618618158 -0.06071095796570261 -0.050120809059281415 0.11874472317289703
0.06449817181386962 -0.010332780943899235 0.014277750784305442 -0.0032036940271594075 0.02797405851000113 0.014446127820423198 -0.01425668230343475 -0.024077497235615638
0.0020187890726701824 -0.009103996330088718 0.04387880911212143 0.018209485733222015 -0.016127160998017656 0.05201612216038998 0.03739443714215929 -0.04170880216104302
0.06924828232123241 -0.015664569381600286 0.04074956290821771 -0.036631258828312176 -0.035520693065822805 0.09864696153255569 -0.0652699619904414 -0.03330118772459571
0.02238646382763044 -0.028183016784056762 -0.047277186414402574 -0.013852843625763119 -0.0178770186972886 0.06651535726126165 0.018061182967367206 -0.04403697045441805
0.042538665158969646 0.033626150197293585 -0.012022259998463725 0.02707257490224926 -0.0625558708535767 -0.06698914985987893 -0.04955060681649509 -0.00015733195629452697
0.03218123877641655 -0.027186207214414147 0.04772742661708687 -0.030372664531948295 0.053721904392323494 -0.0008959432988801338 -0.05462036688879264 0.008967935679482926
-0.11495427327238832 -0.018292540526665346 0.024511278006995957 0.018517230483826693 0.009255539229500228 -0.028855885283382204 -0.11466982300757324 -0.07691006809751812
-0.00895321657624229 0.08566773203492536 0.02150628016317044 -0.0039106494169104155 0.033886256816705734 -0.06091883232429239 0.0014447319792828617 -0.012710804719666789
0.002065622376643518 0.005031360950045255 -0.028924933360882088 -0.01442916265608819 0.013193908595597808 -0.02983588594125865 0.03195116663878255 0.024049439753311263
-0.027574757391698623 0.07340133804844778 0.024609802330529063 0.01600229930938757 -0.029960587483512803 -0.06499927189718122 0.037198809717376366 0.014774625249996665
-0.032548111123911705 -0.06401723885180448 0.05670703702407233 -0.02793411118532957 0.03180610122316532 0.047395206712546545 -0.16705144578266704 -0.047513668749417266
-0.03215155801725324 -0.02182659015274566 -0.006199932378237613 0.06612650627101062 -0.010776766815910537 0.023152011398270198 -0.0402796971655168 -0.023776163548820114
-0.05770108660217076 0.06025473161915948 0.01026568556339322 -0.04695563822687644 -0.020278473907745106 0.007327633353351955 -0.03030808666365216 0.04819156952327725
-0.014872688057236303 -0.03650310721916954 0.015532238549015457 0.05389912704288394 0.03649722546976894 -0.049371577089200286 -0.03481273312642876 -0.011620420473199864
-0.03543013624664578 -0.0008393983999349923 0.021489822094215013 -0.06332135122758359 0.06055682108198655 -0.015587463224229053 0.022549243985233454 -0.04075404473633091
-0.03504757423777291 0.06358422937032582 -0.03252222371252265 0.03516784564964114 -0.025797680392573973 0.11339584808218893 0.023134609288133642 -0.007851951579439983
-0.010222955602883587 0.04802291582457743 0.0448213556202628 0.016574650781970544 0.045425684071651096 -0.04180354624211686 0.010413365107219087 -0.06682611679220406
-0.013592683969824465 0.004083059819043979 0.013863846548626728 0.0014106559799202582 -0.014743963672248584 -0.02522956631982375 0.04481513595169875 -0.06508676271156617
0.01800845251281873 0.039295360658163615 -0.013826932532446807 0.028202387470886305 -0.033295425342066004 0.04332152905383968 -0.050925462385736676 0.03496689159904503
-0.05610677485009857 0.01838228318280205 0.03034211479880067 0.025248168360426648 0.004795092195113638 0.002410109095528347 0.024213370166625833 -0.0012425823964866123
